…
ivation.Activation object at 0x7f123753af90>], [<layer.Pooling object at 0x7f12374e8090>, <activation.Activation object at 0x7f12374e80d0>], [<layer.Convolution object at 0x7f12374e8110>, <activation.Activation object at 0x7f12374e81d0>], [<layer.Pooling object at 0x7f12374e8250>, <activation.Activation object at 0x7f12374e8290>], [<layer.Linear object at 0x7f12374e82d0>, <activation.Activation object at 0x7f12374e8350>]]]
2022-12-07 16:48:54.559 | INFO     | trainer:run:62 - GA Search Time: 1 day, 9:26:27.615417
2022-12-07 16:48:54.717 | INFO     | trainer:run:65 - model: Sequential(
  (C_0_0): Conv2d(1, 62, kernel_size=(3, 3), stride=(1, 1), padding=(1, 1), bias=False)
  (C_0_1): BatchNorm2d(62, eps=1e-05, momentum=0.1, affine=True, track_running_stats=True)
  (C_0_2): Dropout(p=0.0, inplace=False)
  (ReLU_0_0): ReLU()
  (C_1_0): Conv2d(62, 20, kernel_size=(1, 1), stride=(1, 1), bias=False)
  (C_1_1): BatchNorm2d(20, eps=1e-05, momentum=0.1, affine=True, track_running_stats=True)
  (C_1_2): Dropout(p=0.0, inplace=False)
  (ReLU_1_0): ReLU()
  (C_2_0): Conv2d(20, 74, kernel_size=(3, 3), stride=(1, 1), padding=(1, 1))
  (C_2_2): Dropout(p=0.0, inplace=False)
  (ReLU_2_0): Tanh()
  (P_3_0): MaxPool2d(kernel_size=2, stride=1, padding=0, dilation=1, ceil_mode=False)
  (P_3_2): Dropout(p=0.0, inplace=False)
  (C_4_0): Conv2d(74, 145, kernel_size=(1, 1), stride=(1, 1), bias=False)
  (C_4_1): BatchNorm2d(145, eps=1e-05, momentum=0.1, affine=True, track_running_stats=True)
  (C_4_2): Dropout(p=0.0, inplace=False)
  (ReLU_4_0): ReLU()
  (P_5_0): MaxPool2d(kernel_size=2, stride=1, padding=0, dilation=1, ceil_mode=False)
  (P_5_1): BatchNorm2d(145, eps=1e-05, momentum=0.1, affine=True, track_running_stats=True)
  (P_5_2): Dropout(p=0.1, inplace=False)
  (flatten): Flatten(start_dim=1, end_dim=-1)
  (L_6_0): Linear(in_features=98020, out_features=256, bias=False)
  (L_6_1): BatchNorm1d(256, eps=1e-05, momentum=0.1, affine=True, track_running_stats=True)
  (L_6_2): Dropout(p=0.0, inplace=False)
  (Tanh_6_0): Tanh()
  (classification): Linear(in_features=256, out_features=10, bias=True)
)
2022-12-07 16:49:06.548 | INFO     | trainer:run:94 - Fully Train Started
2022-12-07 16:49:06.558 | INFO     | trainer:train:256 - Epoch: 1
2022-12-07 16:50:09.240 | INFO     | trainer:train:282 - Train Loss: 0.795 | Train Acc: 73.313 (21994/30000)
2022-12-07 16:50:13.503 | INFO     | trainer:eval:336 - Eval Loss: 0.881 | Eval Acc: 72.370 (7237/10000)
…
