…
ation.Activation object at 0x7fdba4a071d0>], [<layer.Convolution object at 0x7fdba4a07210>, <activation.Activation object at 0x7fdbae507110>], [<layer.Convolution object at 0x7fdbae4fb410>, <activation.Activation object at 0x7fdbae4fb750>], [<layer.Convolution object at 0x7fdbae4fbf10>, <activation.Activation object at 0x7fdbae502610>], [<layer.Linear object at 0x7fdba4eb1a50>, <activation.Activation object at 0x7fdbae524650>]]]
2022-12-01 03:32:53.539 | INFO     | trainer:run:62 - GA Search Time: 13:06:47.072394
2022-12-01 03:32:53.775 | INFO     | trainer:run:65 - model: Sequential(
  (C_0_0): Conv2d(1, 36, kernel_size=(3, 3), stride=(1, 1), padding=(1, 1), bias=False)
  (C_0_1): BatchNorm2d(36, eps=1e-05, momentum=0.1, affine=True, track_running_stats=True)
  (C_0_2): Dropout(p=0.0, inplace=False)
  (ReLU_0_0): ReLU()
  (P_1_0): MaxPool2d(kernel_size=2, stride=1, padding=0, dilation=1, ceil_mode=False)
  (P_1_2): Dropout(p=0.0, inplace=False)
  (C_2_0): Conv2d(36, 123, kernel_size=(1, 1), stride=(1, 1), bias=False)
  (C_2_1): BatchNorm2d(123, eps=1e-05, momentum=0.1, affine=True, track_running_stats=True)
  (C_2_2): Dropout(p=0.0, inplace=False)
  (Tanh_2_0): Tanh()
  (C_3_0): Conv2d(123, 123, kernel_size=(1, 1), stride=(1, 1), bias=False)
  (C_3_1): BatchNorm2d(123, eps=1e-05, momentum=0.1, affine=True, track_running_stats=True)
  (C_3_2): Dropout(p=0.0, inplace=False)
  (Tanh_3_0): Tanh()
  (C_4_0): Conv2d(123, 92, kernel_size=(1, 1), stride=(1, 1), bias=False)
  (C_4_1): BatchNorm2d(92, eps=1e-05, momentum=0.1, affine=True, track_running_stats=True)
  (C_4_2): Dropout(p=0.0, inplace=False)
  (ReLU_4_0): ReLU()
  (flatten): Flatten(start_dim=1, end_dim=-1)
  (L_5_0): Linear(in_features=67068, out_features=512, bias=False)
  (L_5_1): BatchNorm1d(512, eps=1e-05, momentum=0.1, affine=True, track_running_stats=True)
  (L_5_2): Dropout(p=0.0, inplace=False)
  (ReLU_5_0): Tanh()
  (classification): Linear(in_features=512, out_features=10, bias=True)
)
2022-12-01 03:33:14.601 | INFO     | trainer:run:94 - Fully Train Started
2022-12-01 03:33:14.640 | INFO     | trainer:train:256 - Epoch: 1
2022-12-01 03:33:39.953 | INFO     | trainer:train:282 - Train Loss: 0.388 | Train Acc: 86.437 (25931/30000)
2022-12-01 03:33:42.262 | INFO     | trainer:eval:336 - Eval Loss: 0.310 | Eval Acc: 89.050 (8905/10000)
…
