…
activation.Activation object at 0x7f0f41b3a990>], [<layer.Convolution object at 0x7f0f41b3a9d0>, <activation.Activation object at 0x7f0f41b3aa50>], [<layer.Pooling object at 0x7f0f41b3aa90>, <activation.Activation object at 0x7f0f41b3ab10>], [<layer.Convolution object at 0x7f0f41b3ac10>, <activation.Activation object at 0x7f0f41b3abd0>], [<layer.Linear object at 0x7f0f41b3ac50>, <activation.Activation object at 0x7f0f41b3ad10>]]]
2022-11-24 12:05:40.004 | INFO     | trainer:run:62 - GA Search Time: 6:25:42.789523
2022-11-24 12:05:40.643 | INFO     | trainer:run:65 - model: Sequential(
  (C_0_0): Conv2d(1, 176, kernel_size=(5, 5), stride=(1, 1), padding=(2, 2), bias=False)
  (C_0_1): BatchNorm2d(176, eps=1e-05, momentum=0.1, affine=True, track_running_stats=True)
  (C_0_2): Dropout(p=0.0, inplace=False)
  (ReLU_0_0): ReLU()
  (C_1_0): Conv2d(176, 224, kernel_size=(1, 1), stride=(1, 1), bias=False)
  (C_1_1): BatchNorm2d(224, eps=1e-05, momentum=0.1, affine=True, track_running_stats=True)
  (C_1_2): Dropout(p=0.0, inplace=False)
  (Tanh_1_0): Tanh()
  (C_2_0): Conv2d(224, 102, kernel_size=(3, 3), stride=(1, 1), padding=(1, 1), bias=False)
  (C_2_1): BatchNorm2d(102, eps=1e-05, momentum=0.1, affine=True, track_running_stats=True)
  (C_2_2): Dropout(p=0.0, inplace=False)
  (ReLU_2_0): ReLU()
  (C_3_0): Conv2d(102, 46, kernel_size=(1, 1), stride=(1, 1))
  (C_3_2): Dropout(p=0.0, inplace=False)
  (Sigmoid_3_0): Sigmoid()
  (P_4_0): MaxPool2d(kernel_size=2, stride=1, padding=0, dilation=1, ceil_mode=False)
  (P_4_2): Dropout(p=0.0, inplace=False)
  (C_5_0): Conv2d(46, 255, kernel_size=(1, 1), stride=(1, 1), bias=False)
  (C_5_1): BatchNorm2d(255, eps=1e-05, momentum=0.1, affine=True, track_running_stats=True)
  (C_5_2): Dropout(p=0.1, inplace=False)
  (ReLU_5_0): ReLU()
  (flatten): Flatten(start_dim=1, end_dim=-1)
  (L_6_0): Linear(in_features=185895, out_features=512, bias=False)
  (L_6_1): BatchNorm1d(512, eps=1e-05, momentum=0.1, affine=True, track_running_stats=True)
  (L_6_2): Dropout(p=0.0, inplace=False)
  (ReLU_6_0): ReLU()
  (classification): Linear(in_features=512, out_features=10, bias=True)
)
2022-11-24 12:05:40.643 | INFO     | trainer:run:85 - Fully Train Started
2022-11-24 14:39:20.040 | INFO     | utils:show_exp:174 - Exp Value:
2022-11-24 14:39:20.040 | INFO     | utils:show_exp:176 - dataset: FashionMNIST
2022-11-24 14:39:20.040 | INFO     | utils:show_exp:176 - log_dir: result_zikken
2022-11-24 14:39:20.041 | INFO     | utils:show_exp:176 - resume_dir: resume
…
activation.Activation object at 0x7f8ea1099910>], [<layer.Pooling object at 0x7f8ea1099950>, <activation.Activation object at 0x7f8ea10999d0>], [<layer.Convolution object at 0x7f8ea1099a10>, <activation.Activation object at 0x7f8ea1099ad0>], [<layer.Convolution object at 0x7f8ea1099b50>, <activation.Activation object at 0x7f8ea1099b90>], [<layer.Linear object at 0x7f8ea1099bd0>, <activation.Activation object at 0x7f8ea1099c90>]]]
2022-11-24 21:38:11.735 | INFO     | trainer:run:62 - GA Search Time: 6:58:51.689469
2022-11-24 21:38:12.184 | INFO     | trainer:run:65 - model: Sequential(
  (C_0_0): Conv2d(1, 74, kernel_size=(3, 3), stride=(1, 1), padding=(1, 1))
  (C_0_2): Dropout(p=0.0, inplace=False)
  (ReLU_0_0): ReLU()
  (C_1_0): Conv2d(74, 118, kernel_size=(3, 3), stride=(1, 1), padding=(1, 1))
  (C_1_2): Dropout(p=0.0, inplace=False)
  (ReLU_1_0): ReLU()
  (C_2_0): Conv2d(118, 247, kernel_size=(1, 1), stride=(1, 1), bias=False)
  (C_2_1): BatchNorm2d(247, eps=1e-05, momentum=0.1, affine=True, track_running_stats=True)
  (C_2_2): Dropout(p=0.2, inplace=False)
  (ReLU_2_0): ReLU()
  (P_3_0): MaxPool2d(kernel_size=2, stride=1, padding=0, dilation=1, ceil_mode=False)
  (P_3_2): Dropout(p=0.0, inplace=False)
  (C_4_0): Conv2d(247, 150, kernel_size=(5, 5), stride=(1, 1), padding=(2, 2), bias=False)
  (C_4_1): BatchNorm2d(150, eps=1e-05, momentum=0.1, affine=True, track_running_stats=True)
  (C_4_2): Dropout(p=0.0, inplace=False)
  (ReLU_4_0): ReLU()
  (C_5_0): Conv2d(150, 175, kernel_size=(3, 3), stride=(1, 1), padding=(1, 1))
  (C_5_2): Dropout(p=0.0, inplace=False)
  (ReLU_5_0): ReLU()
  (flatten): Flatten(start_dim=1, end_dim=-1)
  (L_6_0): Linear(in_features=127575, out_features=512, bias=False)
  (L_6_1): BatchNorm1d(512, eps=1e-05, momentum=0.1, affine=True, track_running_stats=True)
  (L_6_2): Dropout(p=0.0, inplace=False)
  (Sigmoid_6_0): Sigmoid()
  (classification): Linear(in_features=512, out_features=10, bias=True)
)
2022-11-24 21:38:12.184 | INFO     | trainer:run:85 - Fully Train Started
2022-11-24 21:38:12.249 | INFO     | trainer:train:244 - Epoch: 1
2022-11-24 21:38:58.550 | INFO     | trainer:train:270 - Train Loss: 0.490 | Train Acc: 86.730 (26019/30000)
2022-11-24 21:39:01.589 | INFO     | trainer:eval:324 - Eval Loss: 0.326 | Eval Acc: 88.970 (8897/10000)
…
           3     0.8565    0.9310    0.8922      1000
           4     0.8947    0.6880    0.7778      1000
           5     0.9908    0.9640    0.9772      1000
           6     0.7010    0.6540    0.6767      1000
           7     0.9427    0.9710    0.9567      1000
           8     0.9760    0.9740    0.9750      1000
           9     0.9622    0.9660    0.9641      1000

    accuracy                         0.8897     10000
   macro avg     0.8915    0.8897    0.8884     10000
weighted avg     0.8915    0.8897    0.8884     10000

2022-11-24 21:39:09.600 | INFO     | trainer:run:101 - Sequential(
  (C_0_0): Conv2d(1, 74, kernel_size=(3, 3), stride=(1, 1), padding=(1, 1))
  (C_0_2): Dropout(p=0.0, inplace=False)
  (ReLU_0_0): ReLU()
  (C_1_0): Conv2d(74, 118, kernel_size=(3, 3), stride=(1, 1), padding=(1, 1))
  (C_1_2): Dropout(p=0.0, inplace=False)
  (ReLU_1_0): ReLU()
  (C_2_0): Conv2d(118, 247, kernel_size=(1, 1), stride=(1, 1), bias=False)
  (C_2_1): BatchNorm2d(247, eps=1e-05, momentum=0.1, affine=True, track_running_stats=True)
  (C_2_2): Dropout(p=0.2, inplace=False)
  (ReLU_2_0): ReLU()
  (P_3_0): MaxPool2d(kernel_size=2, stride=1, padding=0, dilation=1, ceil_mode=False)
  (P_3_2): Dropout(p=0.0, inplace=False)
  (C_4_0): Conv2d(247, 150, kernel_size=(5, 5), stride=(1, 1), padding=(2, 2), bias=False)
  (C_4_1): BatchNorm2d(150, eps=1e-05, momentum=0.1, affine=True, track_running_stats=True)
  (C_4_2): Dropout(p=0.0, inplace=False)
  (ReLU_4_0): ReLU()
  (C_5_0): Conv2d(150, 175, kernel_size=(3, 3), stride=(1, 1), padding=(1, 1))
  (C_5_2): Dropout(p=0.0, inplace=False)
  (ReLU_5_0): ReLU()
  (flatten): Flatten(start_dim=1, end_dim=-1)
  (L_6_0): Linear(in_features=127575, out_features=512, bias=False)
  (L_6_1): BatchNorm1d(512, eps=1e-05, momentum=0.1, affine=True, track_running_stats=True)
  (L_6_2): Dropout(p=0.0, inplace=False)
  (Sigmoid_6_0): Sigmoid()
  (classification): Linear(in_features=512, out_features=10, bias=True)
)
2022-11-24 21:39:09.842 | INFO     | trainer:run:101 - Sequential(
  (C_0_0): Conv2d(1, 74, kernel_size=(3, 3), stride=(1, 1), padding=(1, 1))
  (C_0_2): Dropout(p=0.0, inplace=False)
  (ReLU_0_0): ReLU()
  (C_1_0): Conv2d(74, 118, kernel_size=(3, 3), stride=(1, 1), padding=(1, 1))
  (C_1_2): Dropout(p=0.0, inplace=False)
  (ReLU_1_0): ReLU()
  (P_2_0): MaxPool2d(kernel_size=5, stride=1, padding=0, dilation=1, ceil_mode=False)
  (P_2_1): BatchNorm2d(118, eps=1e-05, momentum=0.1, affine=True, track_running_stats=True)
  (P_2_2): Dropout(p=0.0, inplace=False)
  (C_3_0): Conv2d(118, 247, kernel_size=(1, 1), stride=(1, 1), bias=False)
  (C_3_1): BatchNorm2d(247, eps=1e-05, momentum=0.1, affine=True, track_running_stats=True)
  (C_3_2): Dropout(p=0.2, inplace=False)
  (ReLU_3_0): ReLU()
  (C_4_0): Conv2d(247, 123, kernel_size=(1, 1), stride=(1, 1), bias=False)
  (C_4_1): BatchNorm2d(123, eps=1e-05, momentum=0.1, affine=True, track_running_stats=True)
  (C_4_2): Dropout(p=0.0, inplace=False)
  (Tanh_4_0): Tanh()
  (C_5_0): Conv2d(123, 123, kernel_size=(1, 1), stride=(1, 1), bias=False)
  (C_5_1): BatchNorm2d(123, eps=1e-05, momentum=0.1, affine=True, track_running_stats=True)
  (C_5_2): Dropout(p=0.0, inplace=False)
  (Tanh_5_0): Tanh()
  (flatten): Flatten(start_dim=1, end_dim=-1)
  (L_6_0): Linear(in_features=70848, out_features=512, bias=False)
  (L_6_1): BatchNorm1d(512, eps=1e-05, momentum=0.1, affine=True, track_running_stats=True)
  (L_6_2): Dropout(p=0.0, inplace=False)
  (ReLU_6_0): ReLU()
  (classification): Linear(in_features=512, out_features=10, bias=True)
)
2022-11-24 21:39:10.067 | INFO     | trainer:run:101 - Sequential(
  (C_0_0): Conv2d(1, 74, kernel_size=(3, 3), stride=(1, 1), padding=(1, 1))
  (C_0_2): Dropout(p=0.0, inplace=False)
  (ReLU_0_0): ReLU()
  (C_1_0): Conv2d(74, 118, kernel_size=(3, 3), stride=(1, 1), padding=(1, 1))
  (C_1_2): Dropout(p=0.0, inplace=False)
  (ReLU_1_0): ReLU()
  (P_2_0): MaxPool2d(kernel_size=5, stride=1, padding=0, dilation=1, ceil_mode=False)
  (P_2_1): BatchNorm2d(118, eps=1e-05, momentum=0.1, affine=True, track_running_stats=True)
  (P_2_2): Dropout(p=0.0, inplace=False)
  (flatten): Flatten(start_dim=1, end_dim=-1)
  (L_3_0): Linear(in_features=67968, out_features=512, bias=False)
  (L_3_1): BatchNorm1d(512, eps=1e-05, momentum=0.1, affine=True, track_running_stats=True)
  (L_3_2): Dropout(p=0.0, inplace=False)
  (ReLU_3_0): ReLU()
  (classification): Linear(in_features=512, out_features=10, bias=True)
)
2022-11-24 21:39:10.527 | INFO     | trainer:run:101 - Sequential(
  (C_0_0): Conv2d(1, 74, kernel_size=(3, 3), stride=(1, 1), padding=(1, 1))
  (C_0_2): Dropout(p=0.0, inplace=False)
  (ReLU_0_0): ReLU()
  (C_1_0): Conv2d(74, 118, kernel_size=(3, 3), stride=(1, 1), padding=(1, 1))
  (C_1_2): Dropout(p=0.0, inplace=False)
  (ReLU_1_0): ReLU()
  (C_2_0): Conv2d(118, 253, kernel_size=(3, 3), stride=(1, 1), padding=(1, 1), bias=False)
  (C_2_1): BatchNorm2d(253, eps=1e-05, momentum=0.1, affine=True, track_running_stats=True)
  (C_2_2): Dropout(p=0.2, inplace=False)
  (Sigmoid_2_0): Sigmoid()
  (P_3_0): MaxPool2d(kernel_size=5, stride=1, padding=0, dilation=1, ceil_mode=False)
  (P_3_1): BatchNorm2d(253, eps=1e-05, momentum=0.1, affine=True, track_running_stats=True)
  (P_3_2): Dropout(p=0.0, inplace=False)
  (C_4_0): Conv2d(253, 247, kernel_size=(1, 1), stride=(1, 1), bias=False)
  (C_4_1): BatchNorm2d(247, eps=1e-05, momentum=0.1, affine=True, track_running_stats=True)
  (C_4_2): Dropout(p=0.2, inplace=False)
  (ReLU_4_0): ReLU()
  (flatten): Flatten(start_dim=1, end_dim=-1)
  (L_5_0): Linear(in_features=142272, out_features=512, bias=False)
  (L_5_1): BatchNorm1d(512, eps=1e-05, momentum=0.1, affine=True, track_running_stats=True)
  (L_5_2): Dropout(p=0.0, inplace=False)
  (ReLU_5_0): ReLU()
  (classification): Linear(in_features=512, out_features=10, bias=True)
)
2022-11-24 21:39:10.829 | INFO     | trainer:run:101 - Sequential(
  (C_0_0): Conv2d(1, 74, kernel_size=(3, 3), stride=(1, 1), padding=(1, 1))
  (C_0_2): Dropout(p=0.0, inplace=False)
  (ReLU_0_0): ReLU()
  (C_1_0): Conv2d(74, 118, kernel_size=(3, 3), stride=(1, 1), padding=(1, 1))
  (C_1_2): Dropout(p=0.0, inplace=False)
  (ReLU_1_0): ReLU()
  (P_2_0): MaxPool2d(kernel_size=2, stride=1, padding=0, dilation=1, ceil_mode=False)
  (P_2_2): Dropout(p=0.0, inplace=False)
  (C_3_0): Conv2d(118, 253, kernel_size=(3, 3), stride=(1, 1), padding=(1, 1), bias=False)
  (C_3_1): BatchNorm2d(253, eps=1e-05, momentum=0.1, affine=True, track_running_stats=True)
  (C_3_2): Dropout(p=0.2, inplace=False)
  (Sigmoid_3_0): Sigmoid()
  (C_4_0): Conv2d(253, 247, kernel_size=(1, 1), stride=(1, 1), bias=False)
  (C_4_1): BatchNorm2d(247, eps=1e-05, momentum=0.1, affine=True, track_running_stats=True)
  (C_4_2): Dropout(p=0.2, inplace=False)
  (ReLU_4_0): ReLU()
  (C_5_0): Conv2d(247, 123, kernel_size=(1, 1), stride=(1, 1), bias=False)
  (C_5_1): BatchNorm2d(123, eps=1e-05, momentum=0.1, affine=True, track_running_stats=True)
  (C_5_2): Dropout(p=0.0, inplace=False)
  (Tanh_5_0): Tanh()
  (flatten): Flatten(start_dim=1, end_dim=-1)
  (L_6_0): Linear(in_features=89667, out_features=512, bias=False)
  (L_6_1): BatchNorm1d(512, eps=1e-05, momentum=0.1, affine=True, track_running_stats=True)
  (L_6_2): Dropout(p=0.0, inplace=False)
  (ReLU_6_0): ReLU()
  (classification): Linear(in_features=512, out_features=10, bias=True)
)
2022-11-24 21:39:11.113 | INFO     | trainer:run:101 - Sequential(
  (C_0_0): Conv2d(1, 74, kernel_size=(3, 3), stride=(1, 1), padding=(1, 1))
  (C_0_2): Dropout(p=0.0, inplace=False)
  (ReLU_0_0): ReLU()
  (C_1_0): Conv2d(74, 118, kernel_size=(3, 3), stride=(1, 1), padding=(1, 1))
  (C_1_2): Dropout(p=0.0, inplace=False)
  (ReLU_1_0): ReLU()
  (P_2_0): MaxPool2d(kernel_size=2, stride=1, padding=0, dilation=1, ceil_mode=False)
  (P_2_2): Dropout(p=0.0, inplace=False)
  (flatten): Flatten(start_dim=1, end_dim=-1)
  (L_3_0): Linear(in_features=86022, out_features=512, bias=False)
  (L_3_1): BatchNorm1d(512, eps=1e-05, momentum=0.1, affine=True, track_running_stats=True)
  (L_3_2): Dropout(p=0.0, inplace=False)
  (ReLU_3_0): ReLU()
  (classification): Linear(in_features=512, out_features=10, bias=True)
)
2022-11-24 21:39:11.348 | INFO     | trainer:run:101 - Sequential(
  (C_0_0): Conv2d(1, 74, kernel_size=(3, 3), stride=(1, 1), padding=(1, 1))
  (C_0_2): Dropout(p=0.0, inplace=False)
  (ReLU_0_0): ReLU()
  (C_1_0): Conv2d(74, 118, kernel_size=(3, 3), stride=(1, 1), padding=(1, 1))
  (C_1_2): Dropout(p=0.0, inplace=False)
  (ReLU_1_0): ReLU()
  (P_2_0): MaxPool2d(kernel_size=5, stride=1, padding=0, dilation=1, ceil_mode=False)
  (P_2_1): BatchNorm2d(118, eps=1e-05, momentum=0.1, affine=True, track_running_stats=True)
  (P_2_2): Dropout(p=0.0, inplace=False)
  (C_3_0): Conv2d(118, 123, kernel_size=(1, 1), stride=(1, 1))
  (C_3_2): Dropout(p=0.1, inplace=False)
  (ReLU_3_0): ReLU()
  (C_4_0): Conv2d(123, 247, kernel_size=(1, 1), stride=(1, 1), bias=False)
  (C_4_1): BatchNorm2d(247, eps=1e-05, momentum=0.1, affine=True, track_running_stats=True)
  (C_4_2): Dropout(p=0.2, inplace=False)
  (ReLU_4_0): ReLU()
  (C_5_0): Conv2d(247, 123, kernel_size=(1, 1), stride=(1, 1), bias=False)
  (C_5_1): BatchNorm2d(123, eps=1e-05, momentum=0.1, affine=True, track_running_stats=True)
  (C_5_2): Dropout(p=0.0, inplace=False)
  (Tanh_5_0): Tanh()
  (flatten): Flatten(start_dim=1, end_dim=-1)
  (L_6_0): Linear(in_features=70848, out_features=512, bias=False)
  (L_6_1): BatchNorm1d(512, eps=1e-05, momentum=0.1, affine=True, track_running_stats=True)
  (L_6_2): Dropout(p=0.0, inplace=False)
  (ReLU_6_0): ReLU()
  (classification): Linear(in_features=512, out_features=10, bias=True)
)
2022-11-24 21:39:11.563 | INFO     | trainer:run:101 - Sequential(
  (C_0_0): Conv2d(1, 74, kernel_size=(3, 3), stride=(1, 1), padding=(1, 1))
  (C_0_2): Dropout(p=0.0, inplace=False)
  (ReLU_0_0): ReLU()
  (C_1_0): Conv2d(74, 118, kernel_size=(3, 3), stride=(1, 1), padding=(1, 1))
  (C_1_2): Dropout(p=0.0, inplace=False)
  (ReLU_1_0): ReLU()
  (P_2_0): MaxPool2d(kernel_size=5, stride=1, padding=0, dilation=1, ceil_mode=False)
  (P_2_1): BatchNorm2d(118, eps=1e-05, momentum=0.1, affine=True, track_running_stats=True)
  (P_2_2): Dropout(p=0.0, inplace=False)
  (C_3_0): Conv2d(118, 123, kernel_size=(1, 1), stride=(1, 1))
  (C_3_2): Dropout(p=0.1, inplace=False)
  (ReLU_3_0): ReLU()
  (P_4_0): AvgPool2d(kernel_size=2, stride=1, padding=0)
  (P_4_1): BatchNorm2d(123, eps=1e-05, momentum=0.1, affine=True, track_running_stats=True)
  (P_4_2): Dropout(p=0.0, inplace=False)
  (flatten): Flatten(start_dim=1, end_dim=-1)
  (L_5_0): Linear(in_features=65067, out_features=512, bias=False)
  (L_5_1): BatchNorm1d(512, eps=1e-05, momentum=0.1, affine=True, track_running_stats=True)
  (L_5_2): Dropout(p=0.0, inplace=False)
  (ReLU_5_0): ReLU()
  (classification): Linear(in_features=512, out_features=10, bias=True)
)
2022-11-24 21:39:12.101 | INFO     | trainer:run:101 - Sequential(
  (C_0_0): Conv2d(1, 74, kernel_size=(3, 3), stride=(1, 1), padding=(1, 1))
  (C_0_2): Dropout(p=0.0, inplace=False)
  (ReLU_0_0): ReLU()
  (C_1_0): Conv2d(74, 118, kernel_size=(3, 3), stride=(1, 1), padding=(1, 1))
  (C_1_2): Dropout(p=0.0, inplace=False)
  (ReLU_1_0): ReLU()
  (P_2_0): MaxPool2d(kernel_size=2, stride=1, padding=0, dilation=1, ceil_mode=False)
  (P_2_2): Dropout(p=0.0, inplace=False)
  (C_3_0): Conv2d(118, 118, kernel_size=(3, 3), stride=(1, 1), padding=(1, 1))
  (C_3_2): Dropout(p=0.0, inplace=False)
  (ReLU_3_0): ReLU()
  (C_4_0): Conv2d(118, 253, kernel_size=(3, 3), stride=(1, 1), padding=(1, 1), bias=False)
  (C_4_1): BatchNorm2d(253, eps=1e-05, momentum=0.1, affine=True, track_running_stats=True)
  (C_4_2): Dropout(p=0.2, inplace=False)
  (Sigmoid_4_0): Sigmoid()
  (C_5_0): Conv2d(253, 247, kernel_size=(1, 1), stride=(1, 1), bias=False)
  (C_5_1): BatchNorm2d(247, eps=1e-05, momentum=0.1, affine=True, track_running_stats=True)
  (C_5_2): Dropout(p=0.2, inplace=False)
  (ReLU_5_0): ReLU()
  (C_6_0): Conv2d(247, 247, kernel_size=(1, 1), stride=(1, 1), bias=False)
  (C_6_1): BatchNorm2d(247, eps=1e-05, momentum=0.1, affine=True, track_running_stats=True)
  (C_6_2): Dropout(p=0.2, inplace=False)
  (ReLU_6_0): ReLU()
  (P_7_0): AvgPool2d(kernel_size=2, stride=1, padding=0)
  (P_7_1): BatchNorm2d(247, eps=1e-05, momentum=0.1, affine=True, track_running_stats=True)
  (P_7_2): Dropout(p=0.0, inplace=False)
  (flatten): Flatten(start_dim=1, end_dim=-1)
  (L_8_0): Linear(in_features=166972, out_features=512, bias=False)
  (L_8_1): BatchNorm1d(512, eps=1e-05, momentum=0.1, affine=True, track_running_stats=True)
  (L_8_2): Dropout(p=0.0, inplace=False)
  (ReLU_8_0): ReLU()
  (classification): Linear(in_features=512, out_features=10, bias=True)
)
2022-11-24 21:39:12.612 | INFO     | trainer:run:101 - Sequential(
  (C_0_0): Conv2d(1, 74, kernel_size=(3, 3), stride=(1, 1), padding=(1, 1))
  (C_0_2): Dropout(p=0.0, inplace=False)
  (ReLU_0_0): ReLU()
  (C_1_0): Conv2d(74, 209, kernel_size=(3, 3), stride=(1, 1), padding=(1, 1), bias=False)
  (C_1_1): BatchNorm2d(209, eps=1e-05, momentum=0.1, affine=True, track_running_stats=True)
  (C_1_2): Dropout(p=0.0, inplace=False)
  (ReLU_1_0): ReLU()
  (C_2_0): Conv2d(209, 118, kernel_size=(3, 3), stride=(1, 1), padding=(1, 1))
  (C_2_2): Dropout(p=0.0, inplace=False)
  (ReLU_2_0): ReLU()
  (P_3_0): MaxPool2d(kernel_size=2, stride=1, padding=0, dilation=1, ceil_mode=False)
  (P_3_2): Dropout(p=0.0, inplace=False)
  (C_4_0): Conv2d(118, 253, kernel_size=(3, 3), stride=(1, 1), padding=(1, 1), bias=False)
  (C_4_1): BatchNorm2d(253, eps=1e-05, momentum=0.1, affine=True, track_running_stats=True)
  (C_4_2): Dropout(p=0.2, inplace=False)
  (Sigmoid_4_0): Sigmoid()
  (P_5_0): AvgPool2d(kernel_size=2, stride=1, padding=0)
  (P_5_1): BatchNorm2d(253, eps=1e-05, momentum=0.1, affine=True, track_running_stats=True)
  (P_5_2): Dropout(p=0.0, inplace=False)
  (C_6_0): Conv2d(253, 247, kernel_size=(1, 1), stride=(1, 1), bias=False)
  (C_6_1): BatchNorm2d(247, eps=1e-05, momentum=0.1, affine=True, track_running_stats=True)
  (C_6_2): Dropout(p=0.2, inplace=False)
  (ReLU_6_0): ReLU()
  (C_7_0): Conv2d(247, 247, kernel_size=(1, 1), stride=(1, 1), bias=False)
  (C_7_1): BatchNorm2d(247, eps=1e-05, momentum=0.1, affine=True, track_running_stats=True)
  (C_7_2): Dropout(p=0.2, inplace=False)
  (ReLU_7_0): ReLU()
  (P_8_0): AvgPool2d(kernel_size=2, stride=1, padding=0)
  (P_8_1): BatchNorm2d(247, eps=1e-05, momentum=0.1, affine=True, track_running_stats=True)
  (P_8_2): Dropout(p=0.0, inplace=False)
  (flatten): Flatten(start_dim=1, end_dim=-1)
  (L_9_0): Linear(in_features=154375, out_features=512, bias=False)
  (L_9_1): BatchNorm1d(512, eps=1e-05, momentum=0.1, affine=True, track_running_stats=True)
  (L_9_2): Dropout(p=0.0, inplace=False)
  (ReLU_9_0): ReLU()
  (L_10_0): Linear(in_features=512, out_features=512, bias=True)
  (L_10_2): Dropout(p=0.2, inplace=False)
  (Tanh_10_0): Tanh()
  (L_11_0): Linear(in_features=512, out_features=128, bias=False)
  (L_11_1): BatchNorm1d(128, eps=1e-05, momentum=0.1, affine=True, track_running_stats=True)
  (L_11_2): Dropout(p=0.1, inplace=False)
  (ReLU_11_0): ReLU()
  (L_12_0): Linear(in_features=128, out_features=512, bias=True)
  (L_12_2): Dropout(p=0.0, inplace=False)
  (Tanh_12_0): Tanh()
  (classification): Linear(in_features=512, out_features=10, bias=True)
)
2022-11-24 21:39:12.844 | INFO     | trainer:run:101 - Sequential(
  (C_0_0): Conv2d(1, 74, kernel_size=(3, 3), stride=(1, 1), padding=(1, 1))
  (C_0_2): Dropout(p=0.0, inplace=False)
  (ReLU_0_0): ReLU()
  (C_1_0): Conv2d(74, 118, kernel_size=(3, 3), stride=(1, 1), padding=(1, 1))
  (C_1_2): Dropout(p=0.0, inplace=False)
  (ReLU_1_0): ReLU()
  (P_2_0): MaxPool2d(kernel_size=5, stride=1, padding=0, dilation=1, ceil_mode=False)
  (P_2_2): Dropout(p=0.2, inplace=False)
  (flatten): Flatten(start_dim=1, end_dim=-1)
  (L_3_0): Linear(in_features=67968, out_features=512, bias=False)
  (L_3_1): BatchNorm1d(512, eps=1e-05, momentum=0.1, affine=True, track_running_stats=True)
  (L_3_2): Dropout(p=0.0, inplace=False)
  (ReLU_3_0): ReLU()
  (classification): Linear(in_features=512, out_features=10, bias=True)
)
2022-11-24 21:39:13.345 | INFO     | trainer:run:101 - Sequential(
  (C_0_0): Conv2d(1, 74, kernel_size=(3, 3), stride=(1, 1), padding=(1, 1))
  (C_0_2): Dropout(p=0.0, inplace=False)
  (ReLU_0_0): ReLU()
  (C_1_0): Conv2d(74, 118, kernel_size=(3, 3), stride=(1, 1), padding=(1, 1))
  (C_1_2): Dropout(p=0.0, inplace=False)
  (ReLU_1_0): ReLU()
  (C_2_0): Conv2d(118, 118, kernel_size=(3, 3), stride=(1, 1), padding=(1, 1))
  (C_2_2): Dropout(p=0.0, inplace=False)
  (ReLU_2_0): ReLU()
  (P_3_0): MaxPool2d(kernel_size=2, stride=1, padding=0, dilation=1, ceil_mode=False)
  (P_3_2): Dropout(p=0.0, inplace=False)
  (C_4_0): Conv2d(118, 253, kernel_size=(3, 3), stride=(1, 1), padding=(1, 1), bias=False)
  (C_4_1): BatchNorm2d(253, eps=1e-05, momentum=0.1, affine=True, track_running_stats=True)
  (C_4_2): Dropout(p=0.2, inplace=False)
  (Sigmoid_4_0): Sigmoid()
  (P_5_0): AvgPool2d(kernel_size=2, stride=1, padding=0)
  (P_5_1): BatchNorm2d(253, eps=1e-05, momentum=0.1, affine=True, track_running_stats=True)
  (P_5_2): Dropout(p=0.0, inplace=False)
  (C_6_0): Conv2d(253, 247, kernel_size=(1, 1), stride=(1, 1), bias=False)
  (C_6_1): BatchNorm2d(247, eps=1e-05, momentum=0.1, affine=True, track_running_stats=True)
  (C_6_2): Dropout(p=0.2, inplace=False)
  (ReLU_6_0): ReLU()
  (C_7_0): Conv2d(247, 247, kernel_size=(1, 1), stride=(1, 1), bias=False)
  (C_7_1): BatchNorm2d(247, eps=1e-05, momentum=0.1, affine=True, track_running_stats=True)
  (C_7_2): Dropout(p=0.2, inplace=False)
  (ReLU_7_0): ReLU()
  (P_8_0): AvgPool2d(kernel_size=2, stride=1, padding=0)
  (P_8_1): BatchNorm2d(247, eps=1e-05, momentum=0.1, affine=True, track_running_stats=True)
  (P_8_2): Dropout(p=0.0, inplace=False)
  (flatten): Flatten(start_dim=1, end_dim=-1)
  (L_9_0): Linear(in_features=154375, out_features=512, bias=False)
  (L_9_1): BatchNorm1d(512, eps=1e-05, momentum=0.1, affine=True, track_running_stats=True)
  (L_9_2): Dropout(p=0.0, inplace=False)
  (ReLU_9_0): ReLU()
  (L_10_0): Linear(in_features=512, out_features=512, bias=True)
  (L_10_2): Dropout(p=0.2, inplace=False)
  (Tanh_10_0): Tanh()
  (L_11_0): Linear(in_features=512, out_features=128, bias=False)
  (L_11_1): BatchNorm1d(128, eps=1e-05, momentum=0.1, affine=True, track_running_stats=True)
  (L_11_2): Dropout(p=0.1, inplace=False)
  (ReLU_11_0): ReLU()
  (L_12_0): Linear(in_features=128, out_features=512, bias=True)
  (L_12_2): Dropout(p=0.0, inplace=False)
  (Tanh_12_0): Tanh()
  (classification): Linear(in_features=512, out_features=10, bias=True)
)
2022-11-24 21:39:13.634 | INFO     | trainer:run:101 - Sequential(
  (C_0_0): Conv2d(1, 74, kernel_size=(3, 3), stride=(1, 1), padding=(1, 1))
  (C_0_2): Dropout(p=0.0, inplace=False)
  (ReLU_0_0): ReLU()
  (C_1_0): Conv2d(74, 118, kernel_size=(3, 3), stride=(1, 1), padding=(1, 1))
  (C_1_2): Dropout(p=0.0, inplace=False)
  (ReLU_1_0): ReLU()
  (P_2_0): MaxPool2d(kernel_size=2, stride=1, padding=0, dilation=1, ceil_mode=False)
  (P_2_2): Dropout(p=0.0, inplace=False)
  (flatten): Flatten(start_dim=1, end_dim=-1)
  (L_3_0): Linear(in_features=86022, out_features=512, bias=False)
  (L_3_1): BatchNorm1d(512, eps=1e-05, momentum=0.1, affine=True, track_running_stats=True)
  (L_3_2): Dropout(p=0.0, inplace=False)
  (ReLU_3_0): ReLU()
  (classification): Linear(in_features=512, out_features=10, bias=True)
)
2022-11-24 21:39:13.815 | INFO     | trainer:run:101 - Sequential(
  (C_0_0): Conv2d(1, 74, kernel_size=(3, 3), stride=(1, 1), padding=(1, 1))
  (C_0_2): Dropout(p=0.0, inplace=False)
  (ReLU_0_0): ReLU()
  (C_1_0): Conv2d(74, 118, kernel_size=(3, 3), stride=(1, 1), padding=(1, 1))
  (C_1_2): Dropout(p=0.0, inplace=False)
  (ReLU_1_0): ReLU()
  (P_2_0): MaxPool2d(kernel_size=2, stride=1, padding=0, dilation=1, ceil_mode=False)
  (P_2_2): Dropout(p=0.0, inplace=False)
  (C_3_0): Conv2d(118, 118, kernel_size=(3, 3), stride=(1, 1), padding=(1, 1))
  (C_3_2): Dropout(p=0.0, inplace=False)
  (ReLU_3_0): ReLU()
  (C_4_0): Conv2d(118, 253, kernel_size=(3, 3), stride=(1, 1), padding=(1, 1), bias=False)
  (C_4_1): BatchNorm2d(253, eps=1e-05, momentum=0.1, affine=True, track_running_stats=True)
  (C_4_2): Dropout(p=0.2, inplace=False)
  (Sigmoid_4_0): Sigmoid()
  (C_5_0): Conv2d(253, 247, kernel_size=(1, 1), stride=(1, 1), bias=False)
  (C_5_1): BatchNorm2d(247, eps=1e-05, momentum=0.1, affine=True, track_running_stats=True)
  (C_5_2): Dropout(p=0.2, inplace=False)
  (ReLU_5_0): ReLU()
  (C_6_0): Conv2d(247, 247, kernel_size=(1, 1), stride=(1, 1), bias=False)
  (C_6_1): BatchNorm2d(247, eps=1e-05, momentum=0.1, affine=True, track_running_stats=True)
  (C_6_2): Dropout(p=0.2, inplace=False)
  (ReLU_6_0): ReLU()
  (P_7_0): AvgPool2d(kernel_size=2, stride=1, padding=0)
  (P_7_1): BatchNorm2d(247, eps=1e-05, momentum=0.1, affine=True, track_running_stats=True)
  (P_7_2): Dropout(p=0.0, inplace=False)
  (C_8_0): Conv2d(247, 90, kernel_size=(5, 5), stride=(1, 1), padding=(2, 2), bias=False)
  (C_8_1): BatchNorm2d(90, eps=1e-05, momentum=0.1, affine=True, track_running_stats=True)
  (C_8_2): Dropout(p=0.5, inplace=False)
  (ReLU_8_0): ReLU()
  (P_9_0): MaxPool2d(kernel_size=3, stride=1, padding=0, dilation=1, ceil_mode=False)
  (P_9_2): Dropout(p=0.1, inplace=False)
  (flatten): Flatten(start_dim=1, end_dim=-1)
  (L_10_0): Linear(in_features=51840, out_features=512, bias=False)
  (L_10_1): BatchNorm1d(512, eps=1e-05, momentum=0.1, affine=True, track_running_stats=True)
  (L_10_2): Dropout(p=0.0, inplace=False)
  (ReLU_10_0): ReLU()
  (classification): Linear(in_features=512, out_features=10, bias=True)
)
2022-11-24 21:39:14.095 | INFO     | trainer:run:101 - Sequential(
  (C_0_0): Conv2d(1, 74, kernel_size=(3, 3), stride=(1, 1), padding=(1, 1))
  (C_0_2): Dropout(p=0.0, inplace=False)
  (ReLU_0_0): ReLU()
  (C_1_0): Conv2d(74, 118, kernel_size=(3, 3), stride=(1, 1), padding=(1, 1))
  (C_1_2): Dropout(p=0.0, inplace=False)
  (ReLU_1_0): ReLU()
  (P_2_0): MaxPool2d(kernel_size=2, stride=1, padding=0, dilation=1, ceil_mode=False)
  (P_2_2): Dropout(p=0.0, inplace=False)
  (flatten): Flatten(start_dim=1, end_dim=-1)
  (L_3_0): Linear(in_features=86022, out_features=512, bias=False)
  (L_3_1): BatchNorm1d(512, eps=1e-05, momentum=0.1, affine=True, track_running_stats=True)
  (L_3_2): Dropout(p=0.0, inplace=False)
  (ReLU_3_0): ReLU()
  (classification): Linear(in_features=512, out_features=10, bias=True)
)
2022-11-24 21:39:14.353 | INFO     | trainer:run:101 - Sequential(
  (C_0_0): Conv2d(1, 74, kernel_size=(3, 3), stride=(1, 1), padding=(1, 1))
  (C_0_2): Dropout(p=0.0, inplace=False)
  (ReLU_0_0): ReLU()
  (C_1_0): Conv2d(74, 118, kernel_size=(3, 3), stride=(1, 1), padding=(1, 1))
  (C_1_2): Dropout(p=0.0, inplace=False)
  (ReLU_1_0): ReLU()
  (C_2_0): Conv2d(118, 74, kernel_size=(3, 3), stride=(1, 1), padding=(1, 1))
  (C_2_2): Dropout(p=0.0, inplace=False)
  (ReLU_2_0): ReLU()
  (P_3_0): MaxPool2d(kernel_size=2, stride=1, padding=0, dilation=1, ceil_mode=False)
  (P_3_2): Dropout(p=0.0, inplace=False)
  (C_4_0): Conv2d(74, 160, kernel_size=(1, 1), stride=(1, 1), bias=False)
  (C_4_1): BatchNorm2d(160, eps=1e-05, momentum=0.1, affine=True, track_running_stats=True)
  (C_4_2): Dropout(p=0.0, inplace=False)
  (ReLU_4_0): ReLU()
  (C_5_0): Conv2d(160, 123, kernel_size=(1, 1), stride=(1, 1))
  (C_5_2): Dropout(p=0.1, inplace=False)
  (ReLU_5_0): ReLU()
  (P_6_0): AvgPool2d(kernel_size=2, stride=1, padding=0)
  (P_6_1): BatchNorm2d(123, eps=1e-05, momentum=0.1, affine=True, track_running_stats=True)
  (P_6_2): Dropout(p=0.0, inplace=False)
  (C_7_0): Conv2d(123, 247, kernel_size=(1, 1), stride=(1, 1), bias=False)
  (C_7_1): BatchNorm2d(247, eps=1e-05, momentum=0.1, affine=True, track_running_stats=True)
  (C_7_2): Dropout(p=0.2, inplace=False)
  (ReLU_7_0): ReLU()
  (C_8_0): Conv2d(247, 123, kernel_size=(1, 1), stride=(1, 1), bias=False)
  (C_8_1): BatchNorm2d(123, eps=1e-05, momentum=0.1, affine=True, track_running_stats=True)
  (C_8_2): Dropout(p=0.0, inplace=False)
  (Tanh_8_0): Tanh()
  (P_9_0): AvgPool2d(kernel_size=2, stride=1, padding=0)
  (P_9_1): BatchNorm2d(123, eps=1e-05, momentum=0.1, affine=True, track_running_stats=True)
  (P_9_2): Dropout(p=0.0, inplace=False)
  (flatten): Flatten(start_dim=1, end_dim=-1)
  (L_10_0): Linear(in_features=76875, out_features=512, bias=False)
  (L_10_1): BatchNorm1d(512, eps=1e-05, momentum=0.1, affine=True, track_running_stats=True)
  (L_10_2): Dropout(p=0.0, inplace=False)
  (ReLU_10_0): ReLU()
  (L_11_0): Linear(in_features=512, out_features=512, bias=True)
  (L_11_2): Dropout(p=0.2, inplace=False)
  (Tanh_11_0): Tanh()
  (L_12_0): Linear(in_features=512, out_features=128, bias=False)
  (L_12_1): BatchNorm1d(128, eps=1e-05, momentum=0.1, affine=True, track_running_stats=True)
  (L_12_2): Dropout(p=0.1, inplace=False)
  (ReLU_12_0): ReLU()
  (L_13_0): Linear(in_features=128, out_features=512, bias=True)
  (L_13_2): Dropout(p=0.0, inplace=False)
  (Tanh_13_0): Tanh()
  (classification): Linear(in_features=512, out_features=10, bias=True)
)
2022-11-24 21:39:14.855 | INFO     | trainer:run:101 - Sequential(
  (C_0_0): Conv2d(1, 74, kernel_size=(3, 3), stride=(1, 1), padding=(1, 1))
  (C_0_2): Dropout(p=0.0, inplace=False)
  (ReLU_0_0): ReLU()
  (C_1_0): Conv2d(74, 209, kernel_size=(3, 3), stride=(1, 1), padding=(1, 1), bias=False)
  (C_1_1): BatchNorm2d(209, eps=1e-05, momentum=0.1, affine=True, track_running_stats=True)
  (C_1_2): Dropout(p=0.0, inplace=False)
  (ReLU_1_0): ReLU()
  (C_2_0): Conv2d(209, 118, kernel_size=(3, 3), stride=(1, 1), padding=(1, 1))
  (C_2_2): Dropout(p=0.0, inplace=False)
  (ReLU_2_0): ReLU()
  (P_3_0): MaxPool2d(kernel_size=2, stride=1, padding=0, dilation=1, ceil_mode=False)
  (P_3_2): Dropout(p=0.0, inplace=False)
  (C_4_0): Conv2d(118, 253, kernel_size=(3, 3), stride=(1, 1), padding=(1, 1), bias=False)
  (C_4_1): BatchNorm2d(253, eps=1e-05, momentum=0.1, affine=True, track_running_stats=True)
  (C_4_2): Dropout(p=0.2, inplace=False)
  (Sigmoid_4_0): Sigmoid()
  (P_5_0): AvgPool2d(kernel_size=2, stride=1, padding=0)
  (P_5_1): BatchNorm2d(253, eps=1e-05, momentum=0.1, affine=True, track_running_stats=True)
  (P_5_2): Dropout(p=0.0, inplace=False)
  (C_6_0): Conv2d(253, 247, kernel_size=(1, 1), stride=(1, 1), bias=False)
  (C_6_1): BatchNorm2d(247, eps=1e-05, momentum=0.1, affine=True, track_running_stats=True)
  (C_6_2): Dropout(p=0.2, inplace=False)
  (ReLU_6_0): ReLU()
  (C_7_0): Conv2d(247, 247, kernel_size=(1, 1), stride=(1, 1), bias=False)
  (C_7_1): BatchNorm2d(247, eps=1e-05, momentum=0.1, affine=True, track_running_stats=True)
  (C_7_2): Dropout(p=0.2, inplace=False)
  (ReLU_7_0): ReLU()
  (P_8_0): AvgPool2d(kernel_size=2, stride=1, padding=0)
  (P_8_1): BatchNorm2d(247, eps=1e-05, momentum=0.1, affine=True, track_running_stats=True)
  (P_8_2): Dropout(p=0.0, inplace=False)
  (flatten): Flatten(start_dim=1, end_dim=-1)
  (L_9_0): Linear(in_features=154375, out_features=512, bias=False)
  (L_9_1): BatchNorm1d(512, eps=1e-05, momentum=0.1, affine=True, track_running_stats=True)
  (L_9_2): Dropout(p=0.0, inplace=False)
  (ReLU_9_0): ReLU()
  (L_10_0): Linear(in_features=512, out_features=512, bias=True)
  (L_10_2): Dropout(p=0.2, inplace=False)
  (Tanh_10_0): Tanh()
  (L_11_0): Linear(in_features=512, out_features=128, bias=False)
  (L_11_1): BatchNorm1d(128, eps=1e-05, momentum=0.1, affine=True, track_running_stats=True)
  (L_11_2): Dropout(p=0.1, inplace=False)
  (ReLU_11_0): ReLU()
  (L_12_0): Linear(in_features=128, out_features=512, bias=True)
  (L_12_2): Dropout(p=0.0, inplace=False)
  (Tanh_12_0): Tanh()
  (classification): Linear(in_features=512, out_features=10, bias=True)
)
2022-11-24 21:39:15.143 | INFO     | trainer:run:101 - Sequential(
  (C_0_0): Conv2d(1, 74, kernel_size=(3, 3), stride=(1, 1), padding=(1, 1))
  (C_0_2): Dropout(p=0.0, inplace=False)
  (ReLU_0_0): ReLU()
  (C_1_0): Conv2d(74, 118, kernel_size=(3, 3), stride=(1, 1), padding=(1, 1))
  (C_1_2): Dropout(p=0.0, inplace=False)
  (ReLU_1_0): ReLU()
  (P_2_0): MaxPool2d(kernel_size=2, stride=1, padding=0, dilation=1, ceil_mode=False)
  (P_2_2): Dropout(p=0.0, inplace=False)
  (flatten): Flatten(start_dim=1, end_dim=-1)
  (L_3_0): Linear(in_features=86022, out_features=512, bias=False)
  (L_3_1): BatchNorm1d(512, eps=1e-05, momentum=0.1, affine=True, track_running_stats=True)
  (L_3_2): Dropout(p=0.0, inplace=False)
  (ReLU_3_0): ReLU()
  (classification): Linear(in_features=512, out_features=10, bias=True)
)
2022-11-24 21:39:15.425 | INFO     | trainer:run:101 - Sequential(
  (C_0_0): Conv2d(1, 74, kernel_size=(3, 3), stride=(1, 1), padding=(1, 1))
  (C_0_2): Dropout(p=0.0, inplace=False)
  (ReLU_0_0): ReLU()
  (C_1_0): Conv2d(74, 118, kernel_size=(3, 3), stride=(1, 1), padding=(1, 1))
  (C_1_2): Dropout(p=0.0, inplace=False)
  (ReLU_1_0): ReLU()
  (P_2_0): MaxPool2d(kernel_size=2, stride=1, padding=0, dilation=1, ceil_mode=False)
  (P_2_2): Dropout(p=0.0, inplace=False)
  (flatten): Flatten(start_dim=1, end_dim=-1)
  (L_3_0): Linear(in_features=86022, out_features=512, bias=False)
  (L_3_1): BatchNorm1d(512, eps=1e-05, momentum=0.1, affine=True, track_running_stats=True)
  (L_3_2): Dropout(p=0.0, inplace=False)
  (ReLU_3_0): ReLU()
  (classification): Linear(in_features=512, out_features=10, bias=True)
)
2022-11-24 21:39:15.928 | INFO     | trainer:run:101 - Sequential(
  (C_0_0): Conv2d(1, 74, kernel_size=(3, 3), stride=(1, 1), padding=(1, 1))
  (C_0_2): Dropout(p=0.0, inplace=False)
  (ReLU_0_0): ReLU()
  (C_1_0): Conv2d(74, 118, kernel_size=(3, 3), stride=(1, 1), padding=(1, 1))
  (C_1_2): Dropout(p=0.0, inplace=False)
  (ReLU_1_0): ReLU()
  (C_2_0): Conv2d(118, 118, kernel_size=(3, 3), stride=(1, 1), padding=(1, 1))
  (C_2_2): Dropout(p=0.0, inplace=False)
  (ReLU_2_0): ReLU()
  (P_3_0): MaxPool2d(kernel_size=2, stride=1, padding=0, dilation=1, ceil_mode=False)
  (P_3_2): Dropout(p=0.0, inplace=False)
  (C_4_0): Conv2d(118, 253, kernel_size=(3, 3), stride=(1, 1), padding=(1, 1), bias=False)
  (C_4_1): BatchNorm2d(253, eps=1e-05, momentum=0.1, affine=True, track_running_stats=True)
  (C_4_2): Dropout(p=0.2, inplace=False)
  (Sigmoid_4_0): Sigmoid()
  (P_5_0): AvgPool2d(kernel_size=2, stride=1, padding=0)
  (P_5_1): BatchNorm2d(253, eps=1e-05, momentum=0.1, affine=True, track_running_stats=True)
  (P_5_2): Dropout(p=0.0, inplace=False)
  (C_6_0): Conv2d(253, 247, kernel_size=(1, 1), stride=(1, 1), bias=False)
  (C_6_1): BatchNorm2d(247, eps=1e-05, momentum=0.1, affine=True, track_running_stats=True)
  (C_6_2): Dropout(p=0.2, inplace=False)
  (ReLU_6_0): ReLU()
  (C_7_0): Conv2d(247, 247, kernel_size=(1, 1), stride=(1, 1), bias=False)
  (C_7_1): BatchNorm2d(247, eps=1e-05, momentum=0.1, affine=True, track_running_stats=True)
  (C_7_2): Dropout(p=0.2, inplace=False)
  (ReLU_7_0): ReLU()
  (P_8_0): AvgPool2d(kernel_size=2, stride=1, padding=0)
  (P_8_1): BatchNorm2d(247, eps=1e-05, momentum=0.1, affine=True, track_running_stats=True)
  (P_8_2): Dropout(p=0.0, inplace=False)
  (flatten): Flatten(start_dim=1, end_dim=-1)
  (L_9_0): Linear(in_features=154375, out_features=512, bias=False)
  (L_9_1): BatchNorm1d(512, eps=1e-05, momentum=0.1, affine=True, track_running_stats=True)
  (L_9_2): Dropout(p=0.0, inplace=False)
  (ReLU_9_0): ReLU()
  (L_10_0): Linear(in_features=512, out_features=512, bias=True)
  (L_10_2): Dropout(p=0.2, inplace=False)
  (Tanh_10_0): Tanh()
  (L_11_0): Linear(in_features=512, out_features=128, bias=False)
  (L_11_1): BatchNorm1d(128, eps=1e-05, momentum=0.1, affine=True, track_running_stats=True)
  (L_11_2): Dropout(p=0.1, inplace=False)
  (ReLU_11_0): ReLU()
  (L_12_0): Linear(in_features=128, out_features=512, bias=True)
  (L_12_2): Dropout(p=0.0, inplace=False)
  (Tanh_12_0): Tanh()
  (classification): Linear(in_features=512, out_features=10, bias=True)
)
2022-11-24 21:39:16.439 | INFO     | trainer:run:101 - Sequential(
  (C_0_0): Conv2d(1, 74, kernel_size=(3, 3), stride=(1, 1), padding=(1, 1))
  (C_0_2): Dropout(p=0.0, inplace=False)
  (ReLU_0_0): ReLU()
  (C_1_0): Conv2d(74, 118, kernel_size=(3, 3), stride=(1, 1), padding=(1, 1))
  (C_1_2): Dropout(p=0.0, inplace=False)
  (ReLU_1_0): ReLU()
  (P_2_0): MaxPool2d(kernel_size=2, stride=1, padding=0, dilation=1, ceil_mode=False)
  (P_2_2): Dropout(p=0.0, inplace=False)
  (C_3_0): Conv2d(118, 118, kernel_size=(3, 3), stride=(1, 1), padding=(1, 1))
  (C_3_2): Dropout(p=0.0, inplace=False)
  (ReLU_3_0): ReLU()
  (C_4_0): Conv2d(118, 253, kernel_size=(3, 3), stride=(1, 1), padding=(1, 1), bias=False)
  (C_4_1): BatchNorm2d(253, eps=1e-05, momentum=0.1, affine=True, track_running_stats=True)
  (C_4_2): Dropout(p=0.2, inplace=False)
  (Sigmoid_4_0): Sigmoid()
  (P_5_0): AvgPool2d(kernel_size=2, stride=1, padding=0)
  (P_5_1): BatchNorm2d(253, eps=1e-05, momentum=0.1, affine=True, track_running_stats=True)
  (P_5_2): Dropout(p=0.0, inplace=False)
  (C_6_0): Conv2d(253, 247, kernel_size=(1, 1), stride=(1, 1), bias=False)
  (C_6_1): BatchNorm2d(247, eps=1e-05, momentum=0.1, affine=True, track_running_stats=True)
  (C_6_2): Dropout(p=0.2, inplace=False)
  (ReLU_6_0): ReLU()
  (P_7_0): AvgPool2d(kernel_size=2, stride=1, padding=0)
  (P_7_1): BatchNorm2d(247, eps=1e-05, momentum=0.1, affine=True, track_running_stats=True)
  (P_7_2): Dropout(p=0.0, inplace=False)
  (flatten): Flatten(start_dim=1, end_dim=-1)
  (L_8_0): Linear(in_features=154375, out_features=512, bias=False)
  (L_8_1): BatchNorm1d(512, eps=1e-05, momentum=0.1, affine=True, track_running_stats=True)
  (L_8_2): Dropout(p=0.0, inplace=False)
  (ReLU_8_0): ReLU()
  (L_9_0): Linear(in_features=512, out_features=512, bias=True)
  (L_9_2): Dropout(p=0.2, inplace=False)
  (Tanh_9_0): Tanh()
  (L_10_0): Linear(in_features=512, out_features=128, bias=False)
  (L_10_1): BatchNorm1d(128, eps=1e-05, momentum=0.1, affine=True, track_running_stats=True)
  (L_10_2): Dropout(p=0.1, inplace=False)
  (ReLU_10_0): ReLU()
  (L_11_0): Linear(in_features=128, out_features=512, bias=True)
  (L_11_2): Dropout(p=0.0, inplace=False)
  (Tanh_11_0): Tanh()
  (L_12_0): Linear(in_features=512, out_features=128, bias=False)
  (L_12_1): BatchNorm1d(128, eps=1e-05, momentum=0.1, affine=True, track_running_stats=True)
  (L_12_2): Dropout(p=0.1, inplace=False)
  (Tanh_12_0): Tanh()
  (L_13_0): Linear(in_features=128, out_features=512, bias=True)
  (L_13_2): Dropout(p=0.0, inplace=False)
  (Tanh_13_0): Tanh()
  (classification): Linear(in_features=512, out_features=10, bias=True)
)
2022-11-24 21:39:16.747 | INFO     | trainer:run:101 - Sequential(
  (C_0_0): Conv2d(1, 74, kernel_size=(3, 3), stride=(1, 1), padding=(1, 1))
  (C_0_2): Dropout(p=0.0, inplace=False)
  (ReLU_0_0): ReLU()
  (C_1_0): Conv2d(74, 118, kernel_size=(3, 3), stride=(1, 1), padding=(1, 1))
  (C_1_2): Dropout(p=0.0, inplace=False)
  (ReLU_1_0): ReLU()
  (flatten): Flatten(start_dim=1, end_dim=-1)
  (L_2_0): Linear(in_features=92512, out_features=512, bias=False)
  (L_2_1): BatchNorm1d(512, eps=1e-05, momentum=0.1, affine=True, track_running_stats=True)
  (L_2_2): Dropout(p=0.0, inplace=False)
  (ReLU_2_0): ReLU()
  (classification): Linear(in_features=512, out_features=10, bias=True)
)
2022-11-24 21:39:17.030 | INFO     | trainer:run:101 - Sequential(
  (C_0_0): Conv2d(1, 74, kernel_size=(3, 3), stride=(1, 1), padding=(1, 1))
  (C_0_2): Dropout(p=0.0, inplace=False)
  (ReLU_0_0): ReLU()
  (C_1_0): Conv2d(74, 118, kernel_size=(3, 3), stride=(1, 1), padding=(1, 1))
  (C_1_2): Dropout(p=0.0, inplace=False)
  (ReLU_1_0): ReLU()
  (P_2_0): MaxPool2d(kernel_size=2, stride=1, padding=0, dilation=1, ceil_mode=False)
  (P_2_2): Dropout(p=0.0, inplace=False)
  (flatten): Flatten(start_dim=1, end_dim=-1)
  (L_3_0): Linear(in_features=86022, out_features=512, bias=False)
  (L_3_1): BatchNorm1d(512, eps=1e-05, momentum=0.1, affine=True, track_running_stats=True)
  (L_3_2): Dropout(p=0.0, inplace=False)
  (ReLU_3_0): ReLU()
  (classification): Linear(in_features=512, out_features=10, bias=True)
)
2022-11-24 21:39:17.534 | INFO     | trainer:run:101 - Sequential(
  (C_0_0): Conv2d(1, 74, kernel_size=(3, 3), stride=(1, 1), padding=(1, 1))
  (C_0_2): Dropout(p=0.0, inplace=False)
  (ReLU_0_0): ReLU()
  (C_1_0): Conv2d(74, 209, kernel_size=(3, 3), stride=(1, 1), padding=(1, 1), bias=False)
  (C_1_1): BatchNorm2d(209, eps=1e-05, momentum=0.1, affine=True, track_running_stats=True)
  (C_1_2): Dropout(p=0.0, inplace=False)
  (ReLU_1_0): ReLU()
  (P_2_0): MaxPool2d(kernel_size=2, stride=1, padding=0, dilation=1, ceil_mode=False)
  (P_2_2): Dropout(p=0.0, inplace=False)
  (C_3_0): Conv2d(209, 118, kernel_size=(3, 3), stride=(1, 1), padding=(1, 1))
  (C_3_2): Dropout(p=0.0, inplace=False)
  (ReLU_3_0): ReLU()
  (C_4_0): Conv2d(118, 253, kernel_size=(3, 3), stride=(1, 1), padding=(1, 1), bias=False)
  (C_4_1): BatchNorm2d(253, eps=1e-05, momentum=0.1, affine=True, track_running_stats=True)
  (C_4_2): Dropout(p=0.2, inplace=False)
  (Sigmoid_4_0): Sigmoid()
  (P_5_0): AvgPool2d(kernel_size=2, stride=1, padding=0)
  (P_5_1): BatchNorm2d(253, eps=1e-05, momentum=0.1, affine=True, track_running_stats=True)
  (P_5_2): Dropout(p=0.0, inplace=False)
  (C_6_0): Conv2d(253, 247, kernel_size=(1, 1), stride=(1, 1), bias=False)
  (C_6_1): BatchNorm2d(247, eps=1e-05, momentum=0.1, affine=True, track_running_stats=True)
  (C_6_2): Dropout(p=0.2, inplace=False)
  (ReLU_6_0): ReLU()
  (P_7_0): AvgPool2d(kernel_size=2, stride=1, padding=0)
  (P_7_1): BatchNorm2d(247, eps=1e-05, momentum=0.1, affine=True, track_running_stats=True)
  (P_7_2): Dropout(p=0.0, inplace=False)
  (flatten): Flatten(start_dim=1, end_dim=-1)
  (L_8_0): Linear(in_features=154375, out_features=512, bias=False)
  (L_8_1): BatchNorm1d(512, eps=1e-05, momentum=0.1, affine=True, track_running_stats=True)
  (L_8_2): Dropout(p=0.0, inplace=False)
  (ReLU_8_0): ReLU()
  (L_9_0): Linear(in_features=512, out_features=512, bias=True)
  (L_9_2): Dropout(p=0.2, inplace=False)
  (Tanh_9_0): Tanh()
  (L_10_0): Linear(in_features=512, out_features=128, bias=False)
  (L_10_1): BatchNorm1d(128, eps=1e-05, momentum=0.1, affine=True, track_running_stats=True)
  (L_10_2): Dropout(p=0.1, inplace=False)
  (ReLU_10_0): ReLU()
  (L_11_0): Linear(in_features=128, out_features=512, bias=True)
  (L_11_2): Dropout(p=0.0, inplace=False)
  (Tanh_11_0): Tanh()
  (L_12_0): Linear(in_features=512, out_features=128, bias=False)
  (L_12_1): BatchNorm1d(128, eps=1e-05, momentum=0.1, affine=True, track_running_stats=True)
  (L_12_2): Dropout(p=0.1, inplace=False)
  (Tanh_12_0): Tanh()
  (L_13_0): Linear(in_features=128, out_features=512, bias=True)
  (L_13_2): Dropout(p=0.0, inplace=False)
  (Tanh_13_0): Tanh()
  (classification): Linear(in_features=512, out_features=10, bias=True)
)
2022-11-24 21:39:17.843 | INFO     | trainer:run:101 - Sequential(
  (C_0_0): Conv2d(1, 74, kernel_size=(3, 3), stride=(1, 1), padding=(1, 1))
  (C_0_2): Dropout(p=0.0, inplace=False)
  (ReLU_0_0): ReLU()
  (C_1_0): Conv2d(74, 118, kernel_size=(3, 3), stride=(1, 1), padding=(1, 1))
  (C_1_2): Dropout(p=0.0, inplace=False)
  (ReLU_1_0): ReLU()
  (flatten): Flatten(start_dim=1, end_dim=-1)
  (L_2_0): Linear(in_features=92512, out_features=512, bias=False)
  (L_2_1): BatchNorm1d(512, eps=1e-05, momentum=0.1, affine=True, track_running_stats=True)
  (L_2_2): Dropout(p=0.0, inplace=False)
  (ReLU_2_0): ReLU()
  (classification): Linear(in_features=512, out_features=10, bias=True)
)
2022-11-24 21:39:18.241 | INFO     | trainer:run:101 - Sequential(
  (C_0_0): Conv2d(1, 74, kernel_size=(3, 3), stride=(1, 1), padding=(1, 1))
  (C_0_2): Dropout(p=0.0, inplace=False)
  (ReLU_0_0): ReLU()
  (C_1_0): Conv2d(74, 118, kernel_size=(3, 3), stride=(1, 1), padding=(1, 1))
  (C_1_2): Dropout(p=0.0, inplace=False)
  (ReLU_1_0): ReLU()
  (C_2_0): Conv2d(118, 189, kernel_size=(5, 5), stride=(1, 1), padding=(2, 2))
  (C_2_2): Dropout(p=0.1, inplace=False)
  (Sigmoid_2_0): Sigmoid()
  (P_3_0): MaxPool2d(kernel_size=5, stride=1, padding=0, dilation=1, ceil_mode=False)
  (P_3_1): BatchNorm2d(189, eps=1e-05, momentum=0.1, affine=True, track_running_stats=True)
  (P_3_2): Dropout(p=0.0, inplace=False)
  (C_4_0): Conv2d(189, 253, kernel_size=(3, 3), stride=(1, 1), padding=(1, 1), bias=False)
  (C_4_1): BatchNorm2d(253, eps=1e-05, momentum=0.1, affine=True, track_running_stats=True)
  (C_4_2): Dropout(p=0.2, inplace=False)
  (Sigmoid_4_0): Sigmoid()
  (P_5_0): AvgPool2d(kernel_size=2, stride=1, padding=0)
  (P_5_1): BatchNorm2d(253, eps=1e-05, momentum=0.1, affine=True, track_running_stats=True)
  (P_5_2): Dropout(p=0.0, inplace=False)
  (C_6_0): Conv2d(253, 247, kernel_size=(1, 1), stride=(1, 1), bias=False)
  (C_6_1): BatchNorm2d(247, eps=1e-05, momentum=0.1, affine=True, track_running_stats=True)
  (C_6_2): Dropout(p=0.2, inplace=False)
  (ReLU_6_0): ReLU()
  (C_7_0): Conv2d(247, 247, kernel_size=(1, 1), stride=(1, 1), bias=False)
  (C_7_1): BatchNorm2d(247, eps=1e-05, momentum=0.1, affine=True, track_running_stats=True)
  (C_7_2): Dropout(p=0.2, inplace=False)
  (ReLU_7_0): ReLU()
  (P_8_0): AvgPool2d(kernel_size=2, stride=1, padding=0)
  (P_8_1): BatchNorm2d(247, eps=1e-05, momentum=0.1, affine=True, track_running_stats=True)
  (P_8_2): Dropout(p=0.0, inplace=False)
  (flatten): Flatten(start_dim=1, end_dim=-1)
  (L_9_0): Linear(in_features=119548, out_features=512, bias=False)
  (L_9_1): BatchNorm1d(512, eps=1e-05, momentum=0.1, affine=True, track_running_stats=True)
  (L_9_2): Dropout(p=0.0, inplace=False)
  (ReLU_9_0): ReLU()
  (L_10_0): Linear(in_features=512, out_features=512, bias=True)
  (L_10_2): Dropout(p=0.2, inplace=False)
  (Tanh_10_0): Tanh()
  (L_11_0): Linear(in_features=512, out_features=128, bias=False)
  (L_11_1): BatchNorm1d(128, eps=1e-05, momentum=0.1, affine=True, track_running_stats=True)
  (L_11_2): Dropout(p=0.1, inplace=False)
  (ReLU_11_0): ReLU()
  (L_12_0): Linear(in_features=128, out_features=512, bias=True)
  (L_12_2): Dropout(p=0.0, inplace=False)
  (Tanh_12_0): Tanh()
  (classification): Linear(in_features=512, out_features=10, bias=True)
)
2022-11-24 21:39:18.480 | INFO     | trainer:run:101 - Sequential(
  (C_0_0): Conv2d(1, 74, kernel_size=(3, 3), stride=(1, 1), padding=(1, 1))
  (C_0_2): Dropout(p=0.0, inplace=False)
  (ReLU_0_0): ReLU()
  (C_1_0): Conv2d(74, 118, kernel_size=(3, 3), stride=(1, 1), padding=(1, 1))
  (C_1_2): Dropout(p=0.0, inplace=False)
  (ReLU_1_0): ReLU()
  (C_2_0): Conv2d(118, 123, kernel_size=(1, 1), stride=(1, 1))
  (C_2_2): Dropout(p=0.1, inplace=False)
  (ReLU_2_0): ReLU()
  (P_3_0): MaxPool2d(kernel_size=5, stride=1, padding=0, dilation=1, ceil_mode=False)
  (P_3_1): BatchNorm2d(123, eps=1e-05, momentum=0.1, affine=True, track_running_stats=True)
  (P_3_2): Dropout(p=0.0, inplace=False)
  (C_4_0): Conv2d(123, 247, kernel_size=(1, 1), stride=(1, 1), bias=False)
  (C_4_1): BatchNorm2d(247, eps=1e-05, momentum=0.1, affine=True, track_running_stats=True)
  (C_4_2): Dropout(p=0.2, inplace=False)
  (ReLU_4_0): ReLU()
  (C_5_0): Conv2d(247, 123, kernel_size=(1, 1), stride=(1, 1), bias=False)
  (C_5_1): BatchNorm2d(123, eps=1e-05, momentum=0.1, affine=True, track_running_stats=True)
  (C_5_2): Dropout(p=0.0, inplace=False)
  (Tanh_5_0): Tanh()
  (flatten): Flatten(start_dim=1, end_dim=-1)
  (L_6_0): Linear(in_features=70848, out_features=512, bias=False)
  (L_6_1): BatchNorm1d(512, eps=1e-05, momentum=0.1, affine=True, track_running_stats=True)
  (L_6_2): Dropout(p=0.0, inplace=False)
  (ReLU_6_0): ReLU()
  (classification): Linear(in_features=512, out_features=10, bias=True)
)
2022-11-24 21:39:18.980 | INFO     | trainer:run:101 - Sequential(
  (C_0_0): Conv2d(1, 74, kernel_size=(3, 3), stride=(1, 1), padding=(1, 1))
  (C_0_2): Dropout(p=0.0, inplace=False)
  (ReLU_0_0): ReLU()
  (C_1_0): Conv2d(74, 118, kernel_size=(3, 3), stride=(1, 1), padding=(1, 1))
  (C_1_2): Dropout(p=0.0, inplace=False)
  (ReLU_1_0): ReLU()
  (C_2_0): Conv2d(118, 253, kernel_size=(3, 3), stride=(1, 1), padding=(1, 1), bias=False)
  (C_2_1): BatchNorm2d(253, eps=1e-05, momentum=0.1, affine=True, track_running_stats=True)
  (C_2_2): Dropout(p=0.2, inplace=False)
  (Sigmoid_2_0): Sigmoid()
  (P_3_0): MaxPool2d(kernel_size=2, stride=1, padding=0, dilation=1, ceil_mode=False)
  (P_3_2): Dropout(p=0.0, inplace=False)
  (C_4_0): Conv2d(253, 247, kernel_size=(1, 1), stride=(1, 1), bias=False)
  (C_4_1): BatchNorm2d(247, eps=1e-05, momentum=0.1, affine=True, track_running_stats=True)
  (C_4_2): Dropout(p=0.2, inplace=False)
  (ReLU_4_0): ReLU()
  (P_5_0): AvgPool2d(kernel_size=2, stride=1, padding=0)
  (P_5_1): BatchNorm2d(247, eps=1e-05, momentum=0.1, affine=True, track_running_stats=True)
  (P_5_2): Dropout(p=0.0, inplace=False)
  (C_6_0): Conv2d(247, 123, kernel_size=(1, 1), stride=(1, 1), bias=False)
  (C_6_1): BatchNorm2d(123, eps=1e-05, momentum=0.1, affine=True, track_running_stats=True)
  (C_6_2): Dropout(p=0.0, inplace=False)
  (Tanh_6_0): Tanh()
  (C_7_0): Conv2d(123, 247, kernel_size=(1, 1), stride=(1, 1), bias=False)
  (C_7_1): BatchNorm2d(247, eps=1e-05, momentum=0.1, affine=True, track_running_stats=True)
  (C_7_2): Dropout(p=0.2, inplace=False)
  (ReLU_7_0): ReLU()
  (P_8_0): AvgPool2d(kernel_size=2, stride=1, padding=0)
  (P_8_1): BatchNorm2d(247, eps=1e-05, momentum=0.1, affine=True, track_running_stats=True)
  (P_8_2): Dropout(p=0.0, inplace=False)
  (flatten): Flatten(start_dim=1, end_dim=-1)
  (L_9_0): Linear(in_features=154375, out_features=512, bias=False)
  (L_9_1): BatchNorm1d(512, eps=1e-05, momentum=0.1, affine=True, track_running_stats=True)
  (L_9_2): Dropout(p=0.0, inplace=False)
  (ReLU_9_0): ReLU()
  (L_10_0): Linear(in_features=512, out_features=512, bias=True)
  (L_10_2): Dropout(p=0.2, inplace=False)
  (Tanh_10_0): Tanh()
  (L_11_0): Linear(in_features=512, out_features=128, bias=False)
  (L_11_1): BatchNorm1d(128, eps=1e-05, momentum=0.1, affine=True, track_running_stats=True)
  (L_11_2): Dropout(p=0.1, inplace=False)
  (ReLU_11_0): ReLU()
  (L_12_0): Linear(in_features=128, out_features=512, bias=True)
  (L_12_2): Dropout(p=0.0, inplace=False)
  (Tanh_12_0): Tanh()
  (classification): Linear(in_features=512, out_features=10, bias=True)
)
2022-11-24 21:39:19.289 | INFO     | trainer:run:101 - Sequential(
  (C_0_0): Conv2d(1, 74, kernel_size=(3, 3), stride=(1, 1), padding=(1, 1))
  (C_0_2): Dropout(p=0.0, inplace=False)
  (ReLU_0_0): ReLU()
  (C_1_0): Conv2d(74, 118, kernel_size=(3, 3), stride=(1, 1), padding=(1, 1))
  (C_1_2): Dropout(p=0.0, inplace=False)
  (ReLU_1_0): ReLU()
  (flatten): Flatten(start_dim=1, end_dim=-1)
  (L_2_0): Linear(in_features=92512, out_features=512, bias=False)
  (L_2_1): BatchNorm1d(512, eps=1e-05, momentum=0.1, affine=True, track_running_stats=True)
  (L_2_2): Dropout(p=0.0, inplace=False)
  (ReLU_2_0): ReLU()
  (classification): Linear(in_features=512, out_features=10, bias=True)
)
2022-11-24 21:39:19.790 | INFO     | trainer:run:101 - Sequential(
  (C_0_0): Conv2d(1, 74, kernel_size=(3, 3), stride=(1, 1), padding=(1, 1))
  (C_0_2): Dropout(p=0.0, inplace=False)
  (ReLU_0_0): ReLU()
  (C_1_0): Conv2d(74, 118, kernel_size=(3, 3), stride=(1, 1), padding=(1, 1))
  (C_1_2): Dropout(p=0.0, inplace=False)
  (ReLU_1_0): ReLU()
  (C_2_0): Conv2d(118, 253, kernel_size=(3, 3), stride=(1, 1), padding=(1, 1), bias=False)
  (C_2_1): BatchNorm2d(253, eps=1e-05, momentum=0.1, affine=True, track_running_stats=True)
  (C_2_2): Dropout(p=0.2, inplace=False)
  (Sigmoid_2_0): Sigmoid()
  (P_3_0): MaxPool2d(kernel_size=2, stride=1, padding=0, dilation=1, ceil_mode=False)
  (P_3_2): Dropout(p=0.0, inplace=False)
  (C_4_0): Conv2d(253, 247, kernel_size=(1, 1), stride=(1, 1), bias=False)
  (C_4_1): BatchNorm2d(247, eps=1e-05, momentum=0.1, affine=True, track_running_stats=True)
  (C_4_2): Dropout(p=0.2, inplace=False)
  (ReLU_4_0): ReLU()
  (P_5_0): AvgPool2d(kernel_size=2, stride=1, padding=0)
  (P_5_1): BatchNorm2d(247, eps=1e-05, momentum=0.1, affine=True, track_running_stats=True)
  (P_5_2): Dropout(p=0.0, inplace=False)
  (C_6_0): Conv2d(247, 123, kernel_size=(1, 1), stride=(1, 1), bias=False)
  (C_6_1): BatchNorm2d(123, eps=1e-05, momentum=0.1, affine=True, track_running_stats=True)
  (C_6_2): Dropout(p=0.0, inplace=False)
  (Tanh_6_0): Tanh()
  (C_7_0): Conv2d(123, 247, kernel_size=(1, 1), stride=(1, 1), bias=False)
  (C_7_1): BatchNorm2d(247, eps=1e-05, momentum=0.1, affine=True, track_running_stats=True)
  (C_7_2): Dropout(p=0.2, inplace=False)
  (ReLU_7_0): ReLU()
  (P_8_0): AvgPool2d(kernel_size=2, stride=1, padding=0)
  (P_8_1): BatchNorm2d(247, eps=1e-05, momentum=0.1, affine=True, track_running_stats=True)
  (P_8_2): Dropout(p=0.0, inplace=False)
  (flatten): Flatten(start_dim=1, end_dim=-1)
  (L_9_0): Linear(in_features=154375, out_features=512, bias=False)
  (L_9_1): BatchNorm1d(512, eps=1e-05, momentum=0.1, affine=True, track_running_stats=True)
  (L_9_2): Dropout(p=0.0, inplace=False)
  (ReLU_9_0): ReLU()
  (L_10_0): Linear(in_features=512, out_features=512, bias=True)
  (L_10_2): Dropout(p=0.2, inplace=False)
  (Tanh_10_0): Tanh()
  (L_11_0): Linear(in_features=512, out_features=128, bias=False)
  (L_11_1): BatchNorm1d(128, eps=1e-05, momentum=0.1, affine=True, track_running_stats=True)
  (L_11_2): Dropout(p=0.1, inplace=False)
  (ReLU_11_0): ReLU()
  (L_12_0): Linear(in_features=128, out_features=512, bias=True)
  (L_12_2): Dropout(p=0.0, inplace=False)
  (Tanh_12_0): Tanh()
  (classification): Linear(in_features=512, out_features=10, bias=True)
)
2022-11-24 21:39:20.100 | INFO     | trainer:run:101 - Sequential(
  (C_0_0): Conv2d(1, 74, kernel_size=(3, 3), stride=(1, 1), padding=(1, 1))
  (C_0_2): Dropout(p=0.0, inplace=False)
  (ReLU_0_0): ReLU()
  (C_1_0): Conv2d(74, 118, kernel_size=(3, 3), stride=(1, 1), padding=(1, 1))
  (C_1_2): Dropout(p=0.0, inplace=False)
  (ReLU_1_0): ReLU()
  (flatten): Flatten(start_dim=1, end_dim=-1)
  (L_2_0): Linear(in_features=92512, out_features=512, bias=False)
  (L_2_1): BatchNorm1d(512, eps=1e-05, momentum=0.1, affine=True, track_running_stats=True)
  (L_2_2): Dropout(p=0.0, inplace=False)
  (ReLU_2_0): ReLU()
  (classification): Linear(in_features=512, out_features=10, bias=True)
)
2022-11-24 21:39:20.465 | INFO     | trainer:run:101 - Sequential(
  (C_0_0): Conv2d(1, 74, kernel_size=(3, 3), stride=(1, 1), padding=(1, 1))
  (C_0_2): Dropout(p=0.0, inplace=False)
  (ReLU_0_0): ReLU()
  (C_1_0): Conv2d(74, 118, kernel_size=(3, 3), stride=(1, 1), padding=(1, 1))
  (C_1_2): Dropout(p=0.0, inplace=False)
  (ReLU_1_0): ReLU()
  (P_2_0): MaxPool2d(kernel_size=2, stride=1, padding=0, dilation=1, ceil_mode=False)
  (P_2_2): Dropout(p=0.0, inplace=False)
  (C_3_0): Conv2d(118, 247, kernel_size=(1, 1), stride=(1, 1), bias=False)
  (C_3_1): BatchNorm2d(247, eps=1e-05, momentum=0.1, affine=True, track_running_stats=True)
  (C_3_2): Dropout(p=0.2, inplace=False)
  (ReLU_3_0): ReLU()
  (C_4_0): Conv2d(247, 150, kernel_size=(5, 5), stride=(1, 1), padding=(2, 2), bias=False)
  (C_4_1): BatchNorm2d(150, eps=1e-05, momentum=0.1, affine=True, track_running_stats=True)
  (C_4_2): Dropout(p=0.0, inplace=False)
  (ReLU_4_0): ReLU()
  (P_5_0): AvgPool2d(kernel_size=2, stride=1, padding=0)
  (P_5_1): BatchNorm2d(150, eps=1e-05, momentum=0.1, affine=True, track_running_stats=True)
  (P_5_2): Dropout(p=0.0, inplace=False)
  (C_6_0): Conv2d(150, 175, kernel_size=(3, 3), stride=(1, 1), padding=(1, 1))
  (C_6_2): Dropout(p=0.0, inplace=False)
  (ReLU_6_0): ReLU()
  (P_7_0): AvgPool2d(kernel_size=2, stride=1, padding=0)
  (P_7_1): BatchNorm2d(175, eps=1e-05, momentum=0.1, affine=True, track_running_stats=True)
  (P_7_2): Dropout(p=0.3, inplace=False)
  (flatten): Flatten(start_dim=1, end_dim=-1)
  (L_8_0): Linear(in_features=109375, out_features=512, bias=False)
  (L_8_1): BatchNorm1d(512, eps=1e-05, momentum=0.1, affine=True, track_running_stats=True)
  (L_8_2): Dropout(p=0.0, inplace=False)
  (ReLU_8_0): ReLU()
  (L_9_0): Linear(in_features=512, out_features=512, bias=True)
  (L_9_2): Dropout(p=0.2, inplace=False)
  (Tanh_9_0): Tanh()
  (L_10_0): Linear(in_features=512, out_features=128, bias=False)
  (L_10_1): BatchNorm1d(128, eps=1e-05, momentum=0.1, affine=True, track_running_stats=True)
  (L_10_2): Dropout(p=0.1, inplace=False)
  (ReLU_10_0): ReLU()
  (L_11_0): Linear(in_features=128, out_features=256, bias=False)
  (L_11_1): BatchNorm1d(256, eps=1e-05, momentum=0.1, affine=True, track_running_stats=True)
  (L_11_2): Dropout(p=0.2, inplace=False)
  (ReLU_11_0): ReLU()
  (L_12_0): Linear(in_features=256, out_features=128, bias=False)
  (L_12_1): BatchNorm1d(128, eps=1e-05, momentum=0.1, affine=True, track_running_stats=True)
  (L_12_2): Dropout(p=0.1, inplace=False)
  (Tanh_12_0): Tanh()
  (L_13_0): Linear(in_features=128, out_features=512, bias=True)
  (L_13_2): Dropout(p=0.0, inplace=False)
  (Tanh_13_0): Tanh()
  (classification): Linear(in_features=512, out_features=10, bias=True)
)
2022-11-24 21:39:20.692 | INFO     | trainer:run:101 - Sequential(
  (C_0_0): Conv2d(1, 173, kernel_size=(5, 5), stride=(1, 1), padding=(2, 2), bias=False)
  (C_0_1): BatchNorm2d(173, eps=1e-05, momentum=0.1, affine=True, track_running_stats=True)
  (C_0_2): Dropout(p=0.3, inplace=False)
  (ReLU_0_0): ReLU()
  (flatten): Flatten(start_dim=1, end_dim=-1)
  (L_1_0): Linear(in_features=135632, out_features=256, bias=False)
  (L_1_1): BatchNorm1d(256, eps=1e-05, momentum=0.1, affine=True, track_running_stats=True)
  (L_1_2): Dropout(p=0.0, inplace=False)
  (ReLU_1_0): ReLU()
  (classification): Linear(in_features=256, out_features=10, bias=True)
)
2022-11-24 21:39:21.056 | INFO     | trainer:run:101 - Sequential(
  (C_0_0): Conv2d(1, 74, kernel_size=(3, 3), stride=(1, 1), padding=(1, 1))
  (C_0_2): Dropout(p=0.0, inplace=False)
  (ReLU_0_0): ReLU()
  (C_1_0): Conv2d(74, 118, kernel_size=(3, 3), stride=(1, 1), padding=(1, 1))
  (C_1_2): Dropout(p=0.0, inplace=False)
  (ReLU_1_0): ReLU()
  (P_2_0): MaxPool2d(kernel_size=2, stride=1, padding=0, dilation=1, ceil_mode=False)
  (P_2_2): Dropout(p=0.0, inplace=False)
  (C_3_0): Conv2d(118, 247, kernel_size=(1, 1), stride=(1, 1), bias=False)
  (C_3_1): BatchNorm2d(247, eps=1e-05, momentum=0.1, affine=True, track_running_stats=True)
  (C_3_2): Dropout(p=0.2, inplace=False)
  (ReLU_3_0): ReLU()
  (C_4_0): Conv2d(247, 150, kernel_size=(5, 5), stride=(1, 1), padding=(2, 2), bias=False)
  (C_4_1): BatchNorm2d(150, eps=1e-05, momentum=0.1, affine=True, track_running_stats=True)
  (C_4_2): Dropout(p=0.0, inplace=False)
  (ReLU_4_0): ReLU()
  (P_5_0): AvgPool2d(kernel_size=2, stride=1, padding=0)
  (P_5_1): BatchNorm2d(150, eps=1e-05, momentum=0.1, affine=True, track_running_stats=True)
  (P_5_2): Dropout(p=0.0, inplace=False)
  (C_6_0): Conv2d(150, 175, kernel_size=(3, 3), stride=(1, 1), padding=(1, 1))
  (C_6_2): Dropout(p=0.0, inplace=False)
  (ReLU_6_0): ReLU()
  (P_7_0): AvgPool2d(kernel_size=2, stride=1, padding=0)
  (P_7_1): BatchNorm2d(175, eps=1e-05, momentum=0.1, affine=True, track_running_stats=True)
  (P_7_2): Dropout(p=0.3, inplace=False)
  (flatten): Flatten(start_dim=1, end_dim=-1)
  (L_8_0): Linear(in_features=109375, out_features=512, bias=False)
  (L_8_1): BatchNorm1d(512, eps=1e-05, momentum=0.1, affine=True, track_running_stats=True)
  (L_8_2): Dropout(p=0.0, inplace=False)
  (Sigmoid_8_0): Sigmoid()
  (L_9_0): Linear(in_features=512, out_features=512, bias=True)
  (L_9_2): Dropout(p=0.2, inplace=False)
  (Tanh_9_0): Tanh()
  (L_10_0): Linear(in_features=512, out_features=128, bias=False)
  (L_10_1): BatchNorm1d(128, eps=1e-05, momentum=0.1, affine=True, track_running_stats=True)
  (L_10_2): Dropout(p=0.1, inplace=False)
  (ReLU_10_0): ReLU()
  (L_11_0): Linear(in_features=128, out_features=256, bias=False)
  (L_11_1): BatchNorm1d(256, eps=1e-05, momentum=0.1, affine=True, track_running_stats=True)
  (L_11_2): Dropout(p=0.2, inplace=False)
  (ReLU_11_0): ReLU()
  (L_12_0): Linear(in_features=256, out_features=128, bias=False)
  (L_12_1): BatchNorm1d(128, eps=1e-05, momentum=0.1, affine=True, track_running_stats=True)
  (L_12_2): Dropout(p=0.1, inplace=False)
  (Tanh_12_0): Tanh()
  (L_13_0): Linear(in_features=128, out_features=512, bias=True)
  (L_13_2): Dropout(p=0.0, inplace=False)
  (Tanh_13_0): Tanh()
  (classification): Linear(in_features=512, out_features=10, bias=True)
)
2022-11-24 21:39:21.283 | INFO     | trainer:run:101 - Sequential(
  (C_0_0): Conv2d(1, 173, kernel_size=(5, 5), stride=(1, 1), padding=(2, 2), bias=False)
  (C_0_1): BatchNorm2d(173, eps=1e-05, momentum=0.1, affine=True, track_running_stats=True)
  (C_0_2): Dropout(p=0.3, inplace=False)
  (ReLU_0_0): ReLU()
  (flatten): Flatten(start_dim=1, end_dim=-1)
  (L_1_0): Linear(in_features=135632, out_features=256, bias=False)
  (L_1_1): BatchNorm1d(256, eps=1e-05, momentum=0.1, affine=True, track_running_stats=True)
  (L_1_2): Dropout(p=0.0, inplace=False)
  (ReLU_1_0): ReLU()
  (classification): Linear(in_features=256, out_features=10, bias=True)
)
2022-11-24 21:39:21.538 | INFO     | trainer:run:101 - Sequential(
  (C_0_0): Conv2d(1, 74, kernel_size=(3, 3), stride=(1, 1), padding=(1, 1))
  (C_0_2): Dropout(p=0.0, inplace=False)
  (ReLU_0_0): ReLU()
  (C_1_0): Conv2d(74, 118, kernel_size=(3, 3), stride=(1, 1), padding=(1, 1))
  (C_1_2): Dropout(p=0.0, inplace=False)
  (ReLU_1_0): ReLU()
  (C_2_0): Conv2d(118, 74, kernel_size=(3, 3), stride=(1, 1), padding=(1, 1))
  (C_2_2): Dropout(p=0.0, inplace=False)
  (ReLU_2_0): ReLU()
  (P_3_0): MaxPool2d(kernel_size=2, stride=1, padding=0, dilation=1, ceil_mode=False)
  (P_3_2): Dropout(p=0.0, inplace=False)
  (C_4_0): Conv2d(74, 123, kernel_size=(1, 1), stride=(1, 1))
  (C_4_2): Dropout(p=0.1, inplace=False)
  (ReLU_4_0): ReLU()
  (P_5_0): AvgPool2d(kernel_size=2, stride=1, padding=0)
  (P_5_1): BatchNorm2d(123, eps=1e-05, momentum=0.1, affine=True, track_running_stats=True)
  (P_5_2): Dropout(p=0.0, inplace=False)
  (C_6_0): Conv2d(123, 247, kernel_size=(1, 1), stride=(1, 1), bias=False)
  (C_6_1): BatchNorm2d(247, eps=1e-05, momentum=0.1, affine=True, track_running_stats=True)
  (C_6_2): Dropout(p=0.2, inplace=False)
  (ReLU_6_0): ReLU()
  (C_7_0): Conv2d(247, 123, kernel_size=(1, 1), stride=(1, 1), bias=False)
  (C_7_1): BatchNorm2d(123, eps=1e-05, momentum=0.1, affine=True, track_running_stats=True)
  (C_7_2): Dropout(p=0.0, inplace=False)
  (Tanh_7_0): Tanh()
  (P_8_0): AvgPool2d(kernel_size=2, stride=1, padding=0)
  (P_8_1): BatchNorm2d(123, eps=1e-05, momentum=0.1, affine=True, track_running_stats=True)
  (P_8_2): Dropout(p=0.0, inplace=False)
  (flatten): Flatten(start_dim=1, end_dim=-1)
  (L_9_0): Linear(in_features=76875, out_features=512, bias=False)
  (L_9_1): BatchNorm1d(512, eps=1e-05, momentum=0.1, affine=True, track_running_stats=True)
  (L_9_2): Dropout(p=0.0, inplace=False)
  (ReLU_9_0): ReLU()
  (L_10_0): Linear(in_features=512, out_features=512, bias=True)
  (L_10_2): Dropout(p=0.2, inplace=False)
  (Tanh_10_0): Tanh()
  (L_11_0): Linear(in_features=512, out_features=128, bias=False)
  (L_11_1): BatchNorm1d(128, eps=1e-05, momentum=0.1, affine=True, track_running_stats=True)
  (L_11_2): Dropout(p=0.1, inplace=False)
  (ReLU_11_0): ReLU()
  (L_12_0): Linear(in_features=128, out_features=512, bias=True)
  (L_12_2): Dropout(p=0.0, inplace=False)
  (Tanh_12_0): Tanh()
  (classification): Linear(in_features=512, out_features=10, bias=True)
)
2022-11-24 21:39:21.623 | INFO     | trainer:run:101 - Sequential(
  (C_0_0): Conv2d(1, 74, kernel_size=(3, 3), stride=(1, 1), padding=(1, 1))
  (C_0_2): Dropout(p=0.0, inplace=False)
  (ReLU_0_0): ReLU()
  (C_1_0): Conv2d(74, 118, kernel_size=(3, 3), stride=(1, 1), padding=(1, 1))
  (C_1_2): Dropout(p=0.0, inplace=False)
  (ReLU_1_0): ReLU()
  (P_2_0): MaxPool2d(kernel_size=2, stride=1, padding=0, dilation=1, ceil_mode=False)
  (P_2_2): Dropout(p=0.0, inplace=False)
  (C_3_0): Conv2d(118, 247, kernel_size=(1, 1), stride=(1, 1), bias=False)
  (C_3_1): BatchNorm2d(247, eps=1e-05, momentum=0.1, affine=True, track_running_stats=True)
  (C_3_2): Dropout(p=0.2, inplace=False)
  (ReLU_3_0): ReLU()
  (C_4_0): Conv2d(247, 150, kernel_size=(5, 5), stride=(1, 1), padding=(2, 2), bias=False)
  (C_4_1): BatchNorm2d(150, eps=1e-05, momentum=0.1, affine=True, track_running_stats=True)
  (C_4_2): Dropout(p=0.0, inplace=False)
  (ReLU_4_0): ReLU()
  (P_5_0): AvgPool2d(kernel_size=2, stride=1, padding=0)
  (P_5_1): BatchNorm2d(150, eps=1e-05, momentum=0.1, affine=True, track_running_stats=True)
  (P_5_2): Dropout(p=0.0, inplace=False)
  (C_6_0): Conv2d(150, 175, kernel_size=(3, 3), stride=(1, 1), padding=(1, 1))
  (C_6_2): Dropout(p=0.0, inplace=False)
  (ReLU_6_0): ReLU()
  (P_7_0): AvgPool2d(kernel_size=2, stride=1, padding=0)
  (P_7_1): BatchNorm2d(175, eps=1e-05, momentum=0.1, affine=True, track_running_stats=True)
  (P_7_2): Dropout(p=0.3, inplace=False)
  (C_8_0): Conv2d(175, 37, kernel_size=(5, 5), stride=(1, 1), padding=(2, 2))
  (C_8_2): Dropout(p=0.3, inplace=False)
  (ReLU_8_0): ReLU()
  (P_9_0): MaxPool2d(kernel_size=3, stride=1, padding=0, dilation=1, ceil_mode=False)
  (P_9_2): Dropout(p=0.2, inplace=False)
  (flatten): Flatten(start_dim=1, end_dim=-1)
  (L_10_0): Linear(in_features=19573, out_features=512, bias=False)
  (L_10_1): BatchNorm1d(512, eps=1e-05, momentum=0.1, affine=True, track_running_stats=True)
  (L_10_2): Dropout(p=0.0, inplace=False)
  (ReLU_10_0): ReLU()
  (L_11_0): Linear(in_features=512, out_features=512, bias=True)
  (L_11_2): Dropout(p=0.2, inplace=False)
  (Tanh_11_0): Tanh()
  (L_12_0): Linear(in_features=512, out_features=128, bias=False)
  (L_12_1): BatchNorm1d(128, eps=1e-05, momentum=0.1, affine=True, track_running_stats=True)
  (L_12_2): Dropout(p=0.1, inplace=False)
  (ReLU_12_0): ReLU()
  (L_13_0): Linear(in_features=128, out_features=256, bias=False)
  (L_13_1): BatchNorm1d(256, eps=1e-05, momentum=0.1, affine=True, track_running_stats=True)
  (L_13_2): Dropout(p=0.2, inplace=False)
  (ReLU_13_0): ReLU()
  (L_14_0): Linear(in_features=256, out_features=128, bias=False)
  (L_14_1): BatchNorm1d(128, eps=1e-05, momentum=0.1, affine=True, track_running_stats=True)
  (L_14_2): Dropout(p=0.1, inplace=False)
  (Tanh_14_0): Tanh()
  (L_15_0): Linear(in_features=128, out_features=512, bias=True)
  (L_15_2): Dropout(p=0.0, inplace=False)
  (Tanh_15_0): Tanh()
  (classification): Linear(in_features=512, out_features=10, bias=True)
)
2022-11-24 21:39:21.840 | INFO     | trainer:run:101 - Sequential(
  (C_0_0): Conv2d(1, 173, kernel_size=(5, 5), stride=(1, 1), padding=(2, 2), bias=False)
  (C_0_1): BatchNorm2d(173, eps=1e-05, momentum=0.1, affine=True, track_running_stats=True)
  (C_0_2): Dropout(p=0.3, inplace=False)
  (ReLU_0_0): ReLU()
  (flatten): Flatten(start_dim=1, end_dim=-1)
  (L_1_0): Linear(in_features=135632, out_features=256, bias=False)
  (L_1_1): BatchNorm1d(256, eps=1e-05, momentum=0.1, affine=True, track_running_stats=True)
  (L_1_2): Dropout(p=0.0, inplace=False)
  (ReLU_1_0): ReLU()
  (classification): Linear(in_features=256, out_features=10, bias=True)
)
2022-11-24 21:39:22.121 | INFO     | trainer:run:101 - Sequential(
  (C_0_0): Conv2d(1, 74, kernel_size=(3, 3), stride=(1, 1), padding=(1, 1))
  (C_0_2): Dropout(p=0.0, inplace=False)
  (ReLU_0_0): ReLU()
  (C_1_0): Conv2d(74, 118, kernel_size=(3, 3), stride=(1, 1), padding=(1, 1))
  (C_1_2): Dropout(p=0.0, inplace=False)
  (ReLU_1_0): ReLU()
  (P_2_0): MaxPool2d(kernel_size=2, stride=1, padding=0, dilation=1, ceil_mode=False)
  (P_2_2): Dropout(p=0.0, inplace=False)
  (flatten): Flatten(start_dim=1, end_dim=-1)
  (L_3_0): Linear(in_features=86022, out_features=512, bias=False)
  (L_3_1): BatchNorm1d(512, eps=1e-05, momentum=0.1, affine=True, track_running_stats=True)
  (L_3_2): Dropout(p=0.0, inplace=False)
  (ReLU_3_0): ReLU()
  (classification): Linear(in_features=512, out_features=10, bias=True)
)
2022-11-24 21:39:22.486 | INFO     | trainer:run:101 - Sequential(
  (C_0_0): Conv2d(1, 74, kernel_size=(3, 3), stride=(1, 1), padding=(1, 1))
  (C_0_2): Dropout(p=0.0, inplace=False)
  (ReLU_0_0): ReLU()
  (C_1_0): Conv2d(74, 118, kernel_size=(3, 3), stride=(1, 1), padding=(1, 1))
  (C_1_2): Dropout(p=0.0, inplace=False)
  (ReLU_1_0): ReLU()
  (P_2_0): MaxPool2d(kernel_size=2, stride=1, padding=0, dilation=1, ceil_mode=False)
  (P_2_2): Dropout(p=0.0, inplace=False)
  (C_3_0): Conv2d(118, 247, kernel_size=(1, 1), stride=(1, 1), bias=False)
  (C_3_1): BatchNorm2d(247, eps=1e-05, momentum=0.1, affine=True, track_running_stats=True)
  (C_3_2): Dropout(p=0.2, inplace=False)
  (ReLU_3_0): ReLU()
  (C_4_0): Conv2d(247, 150, kernel_size=(5, 5), stride=(1, 1), padding=(2, 2), bias=False)
  (C_4_1): BatchNorm2d(150, eps=1e-05, momentum=0.1, affine=True, track_running_stats=True)
  (C_4_2): Dropout(p=0.0, inplace=False)
  (ReLU_4_0): ReLU()
  (P_5_0): AvgPool2d(kernel_size=2, stride=1, padding=0)
  (P_5_1): BatchNorm2d(150, eps=1e-05, momentum=0.1, affine=True, track_running_stats=True)
  (P_5_2): Dropout(p=0.0, inplace=False)
  (C_6_0): Conv2d(150, 175, kernel_size=(3, 3), stride=(1, 1), padding=(1, 1))
  (C_6_2): Dropout(p=0.0, inplace=False)
  (ReLU_6_0): ReLU()
  (P_7_0): AvgPool2d(kernel_size=2, stride=1, padding=0)
  (P_7_1): BatchNorm2d(175, eps=1e-05, momentum=0.1, affine=True, track_running_stats=True)
  (P_7_2): Dropout(p=0.3, inplace=False)
  (flatten): Flatten(start_dim=1, end_dim=-1)
  (L_8_0): Linear(in_features=109375, out_features=512, bias=False)
  (L_8_1): BatchNorm1d(512, eps=1e-05, momentum=0.1, affine=True, track_running_stats=True)
  (L_8_2): Dropout(p=0.0, inplace=False)
  (ReLU_8_0): ReLU()
  (L_9_0): Linear(in_features=512, out_features=512, bias=True)
  (L_9_2): Dropout(p=0.2, inplace=False)
  (Tanh_9_0): Tanh()
  (L_10_0): Linear(in_features=512, out_features=128, bias=False)
  (L_10_1): BatchNorm1d(128, eps=1e-05, momentum=0.1, affine=True, track_running_stats=True)
  (L_10_2): Dropout(p=0.1, inplace=False)
  (ReLU_10_0): ReLU()
  (L_11_0): Linear(in_features=128, out_features=256, bias=False)
  (L_11_1): BatchNorm1d(256, eps=1e-05, momentum=0.1, affine=True, track_running_stats=True)
  (L_11_2): Dropout(p=0.2, inplace=False)
  (ReLU_11_0): ReLU()
  (L_12_0): Linear(in_features=256, out_features=128, bias=False)
  (L_12_1): BatchNorm1d(128, eps=1e-05, momentum=0.1, affine=True, track_running_stats=True)
  (L_12_2): Dropout(p=0.1, inplace=False)
  (Tanh_12_0): Tanh()
  (L_13_0): Linear(in_features=128, out_features=512, bias=True)
  (L_13_2): Dropout(p=0.0, inplace=False)
  (Tanh_13_0): Tanh()
  (classification): Linear(in_features=512, out_features=10, bias=True)
)
2022-11-24 21:39:22.790 | INFO     | trainer:run:101 - Sequential(
  (C_0_0): Conv2d(1, 74, kernel_size=(3, 3), stride=(1, 1), padding=(1, 1))
  (C_0_2): Dropout(p=0.0, inplace=False)
  (ReLU_0_0): ReLU()
  (C_1_0): Conv2d(74, 118, kernel_size=(3, 3), stride=(1, 1), padding=(1, 1))
  (C_1_2): Dropout(p=0.0, inplace=False)
  (ReLU_1_0): ReLU()
  (flatten): Flatten(start_dim=1, end_dim=-1)
  (L_2_0): Linear(in_features=92512, out_features=512, bias=False)
  (L_2_1): BatchNorm1d(512, eps=1e-05, momentum=0.1, affine=True, track_running_stats=True)
  (L_2_2): Dropout(p=0.0, inplace=False)
  (ReLU_2_0): ReLU()
  (classification): Linear(in_features=512, out_features=10, bias=True)
)
2022-11-24 21:39:23.073 | INFO     | trainer:run:101 - Sequential(
  (C_0_0): Conv2d(1, 74, kernel_size=(3, 3), stride=(1, 1), padding=(1, 1))
  (C_0_2): Dropout(p=0.0, inplace=False)
  (ReLU_0_0): ReLU()
  (C_1_0): Conv2d(74, 118, kernel_size=(3, 3), stride=(1, 1), padding=(1, 1))
  (C_1_2): Dropout(p=0.0, inplace=False)
  (ReLU_1_0): ReLU()
  (P_2_0): MaxPool2d(kernel_size=2, stride=1, padding=0, dilation=1, ceil_mode=False)
  (P_2_2): Dropout(p=0.0, inplace=False)
  (flatten): Flatten(start_dim=1, end_dim=-1)
  (L_3_0): Linear(in_features=86022, out_features=512, bias=False)
  (L_3_1): BatchNorm1d(512, eps=1e-05, momentum=0.1, affine=True, track_running_stats=True)
  (L_3_2): Dropout(p=0.0, inplace=False)
  (ReLU_3_0): ReLU()
  (classification): Linear(in_features=512, out_features=10, bias=True)
)
2022-11-24 21:39:23.268 | INFO     | trainer:run:101 - Sequential(
  (C_0_0): Conv2d(1, 173, kernel_size=(5, 5), stride=(1, 1), padding=(2, 2), bias=False)
  (C_0_1): BatchNorm2d(173, eps=1e-05, momentum=0.1, affine=True, track_running_stats=True)
  (C_0_2): Dropout(p=0.3, inplace=False)
  (ReLU_0_0): ReLU()
  (C_1_0): Conv2d(173, 118, kernel_size=(3, 3), stride=(1, 1), padding=(1, 1))
  (C_1_2): Dropout(p=0.0, inplace=False)
  (ReLU_1_0): ReLU()
  (P_2_0): MaxPool2d(kernel_size=2, stride=1, padding=0, dilation=1, ceil_mode=False)
  (P_2_2): Dropout(p=0.0, inplace=False)
  (C_3_0): Conv2d(118, 247, kernel_size=(1, 1), stride=(1, 1), bias=False)
  (C_3_1): BatchNorm2d(247, eps=1e-05, momentum=0.1, affine=True, track_running_stats=True)
  (C_3_2): Dropout(p=0.2, inplace=False)
  (ReLU_3_0): ReLU()
  (C_4_0): Conv2d(247, 150, kernel_size=(5, 5), stride=(1, 1), padding=(2, 2), bias=False)
  (C_4_1): BatchNorm2d(150, eps=1e-05, momentum=0.1, affine=True, track_running_stats=True)
  (C_4_2): Dropout(p=0.0, inplace=False)
  (ReLU_4_0): ReLU()
  (P_5_0): AvgPool2d(kernel_size=2, stride=1, padding=0)
  (P_5_1): BatchNorm2d(150, eps=1e-05, momentum=0.1, affine=True, track_running_stats=True)
  (P_5_2): Dropout(p=0.0, inplace=False)
  (C_6_0): Conv2d(150, 175, kernel_size=(3, 3), stride=(1, 1), padding=(1, 1))
  (C_6_2): Dropout(p=0.0, inplace=False)
  (ReLU_6_0): ReLU()
  (P_7_0): AvgPool2d(kernel_size=2, stride=1, padding=0)
  (P_7_1): BatchNorm2d(175, eps=1e-05, momentum=0.1, affine=True, track_running_stats=True)
  (P_7_2): Dropout(p=0.3, inplace=False)
  (flatten): Flatten(start_dim=1, end_dim=-1)
  (L_8_0): Linear(in_features=109375, out_features=256, bias=False)
  (L_8_1): BatchNorm1d(256, eps=1e-05, momentum=0.1, affine=True, track_running_stats=True)
  (L_8_2): Dropout(p=0.0, inplace=False)
  (ReLU_8_0): ReLU()
  (L_9_0): Linear(in_features=256, out_features=512, bias=True)
  (L_9_2): Dropout(p=0.2, inplace=False)
  (Tanh_9_0): Tanh()
  (L_10_0): Linear(in_features=512, out_features=128, bias=False)
  (L_10_1): BatchNorm1d(128, eps=1e-05, momentum=0.1, affine=True, track_running_stats=True)
  (L_10_2): Dropout(p=0.1, inplace=False)
  (ReLU_10_0): ReLU()
  (L_11_0): Linear(in_features=128, out_features=256, bias=False)
  (L_11_1): BatchNorm1d(256, eps=1e-05, momentum=0.1, affine=True, track_running_stats=True)
  (L_11_2): Dropout(p=0.2, inplace=False)
  (ReLU_11_0): ReLU()
  (L_12_0): Linear(in_features=256, out_features=128, bias=False)
  (L_12_1): BatchNorm1d(128, eps=1e-05, momentum=0.1, affine=True, track_running_stats=True)
  (L_12_2): Dropout(p=0.1, inplace=False)
  (Tanh_12_0): Tanh()
  (L_13_0): Linear(in_features=128, out_features=512, bias=True)
  (L_13_2): Dropout(p=0.0, inplace=False)
  (Tanh_13_0): Tanh()
  (classification): Linear(in_features=512, out_features=10, bias=True)
)
2022-11-24 21:39:23.458 | INFO     | trainer:run:101 - Sequential(
  (C_0_0): Conv2d(1, 74, kernel_size=(3, 3), stride=(1, 1), padding=(1, 1))
  (C_0_2): Dropout(p=0.0, inplace=False)
  (ReLU_0_0): ReLU()
  (flatten): Flatten(start_dim=1, end_dim=-1)
  (L_1_0): Linear(in_features=58016, out_features=512, bias=False)
  (L_1_1): BatchNorm1d(512, eps=1e-05, momentum=0.1, affine=True, track_running_stats=True)
  (L_1_2): Dropout(p=0.0, inplace=False)
  (ReLU_1_0): ReLU()
  (classification): Linear(in_features=512, out_features=10, bias=True)
)
2022-11-24 21:39:23.851 | INFO     | trainer:run:101 - Sequential(
  (C_0_0): Conv2d(1, 74, kernel_size=(3, 3), stride=(1, 1), padding=(1, 1))
  (C_0_2): Dropout(p=0.0, inplace=False)
  (ReLU_0_0): ReLU()
  (C_1_0): Conv2d(74, 118, kernel_size=(3, 3), stride=(1, 1), padding=(1, 1))
  (C_1_2): Dropout(p=0.0, inplace=False)
  (ReLU_1_0): ReLU()
  (C_2_0): Conv2d(118, 189, kernel_size=(5, 5), stride=(1, 1), padding=(2, 2))
  (C_2_2): Dropout(p=0.1, inplace=False)
  (Sigmoid_2_0): Sigmoid()
  (P_3_0): MaxPool2d(kernel_size=5, stride=1, padding=0, dilation=1, ceil_mode=False)
  (P_3_1): BatchNorm2d(189, eps=1e-05, momentum=0.1, affine=True, track_running_stats=True)
  (P_3_2): Dropout(p=0.0, inplace=False)
  (C_4_0): Conv2d(189, 253, kernel_size=(3, 3), stride=(1, 1), padding=(1, 1), bias=False)
  (C_4_1): BatchNorm2d(253, eps=1e-05, momentum=0.1, affine=True, track_running_stats=True)
  (C_4_2): Dropout(p=0.2, inplace=False)
  (Sigmoid_4_0): Sigmoid()
  (P_5_0): AvgPool2d(kernel_size=2, stride=1, padding=0)
  (P_5_1): BatchNorm2d(253, eps=1e-05, momentum=0.1, affine=True, track_running_stats=True)
  (P_5_2): Dropout(p=0.0, inplace=False)
  (C_6_0): Conv2d(253, 247, kernel_size=(1, 1), stride=(1, 1), bias=False)
  (C_6_1): BatchNorm2d(247, eps=1e-05, momentum=0.1, affine=True, track_running_stats=True)
  (C_6_2): Dropout(p=0.2, inplace=False)
  (ReLU_6_0): ReLU()
  (C_7_0): Conv2d(247, 247, kernel_size=(1, 1), stride=(1, 1), bias=False)
  (C_7_1): BatchNorm2d(247, eps=1e-05, momentum=0.1, affine=True, track_running_stats=True)
  (C_7_2): Dropout(p=0.2, inplace=False)
  (ReLU_7_0): ReLU()
  (P_8_0): AvgPool2d(kernel_size=2, stride=1, padding=0)
  (P_8_1): BatchNorm2d(247, eps=1e-05, momentum=0.1, affine=True, track_running_stats=True)
  (P_8_2): Dropout(p=0.0, inplace=False)
  (flatten): Flatten(start_dim=1, end_dim=-1)
  (L_9_0): Linear(in_features=119548, out_features=512, bias=False)
  (L_9_1): BatchNorm1d(512, eps=1e-05, momentum=0.1, affine=True, track_running_stats=True)
  (L_9_2): Dropout(p=0.0, inplace=False)
  (ReLU_9_0): ReLU()
  (L_10_0): Linear(in_features=512, out_features=512, bias=True)
  (L_10_2): Dropout(p=0.2, inplace=False)
  (Tanh_10_0): Tanh()
  (L_11_0): Linear(in_features=512, out_features=128, bias=False)
  (L_11_1): BatchNorm1d(128, eps=1e-05, momentum=0.1, affine=True, track_running_stats=True)
  (L_11_2): Dropout(p=0.1, inplace=False)
  (ReLU_11_0): ReLU()
  (L_12_0): Linear(in_features=128, out_features=512, bias=True)
  (L_12_2): Dropout(p=0.0, inplace=False)
  (Tanh_12_0): Tanh()
  (classification): Linear(in_features=512, out_features=10, bias=True)
)
2022-11-24 21:39:24.357 | INFO     | trainer:run:101 - Sequential(
  (C_0_0): Conv2d(1, 74, kernel_size=(3, 3), stride=(1, 1), padding=(1, 1))
  (C_0_2): Dropout(p=0.0, inplace=False)
  (ReLU_0_0): ReLU()
  (C_1_0): Conv2d(74, 118, kernel_size=(3, 3), stride=(1, 1), padding=(1, 1))
  (C_1_2): Dropout(p=0.0, inplace=False)
  (ReLU_1_0): ReLU()
  (C_2_0): Conv2d(118, 253, kernel_size=(3, 3), stride=(1, 1), padding=(1, 1), bias=False)
  (C_2_1): BatchNorm2d(253, eps=1e-05, momentum=0.1, affine=True, track_running_stats=True)
  (C_2_2): Dropout(p=0.2, inplace=False)
  (Sigmoid_2_0): Sigmoid()
  (P_3_0): MaxPool2d(kernel_size=2, stride=1, padding=0, dilation=1, ceil_mode=False)
  (P_3_2): Dropout(p=0.0, inplace=False)
  (C_4_0): Conv2d(253, 247, kernel_size=(1, 1), stride=(1, 1), bias=False)
  (C_4_1): BatchNorm2d(247, eps=1e-05, momentum=0.1, affine=True, track_running_stats=True)
  (C_4_2): Dropout(p=0.2, inplace=False)
  (ReLU_4_0): ReLU()
  (P_5_0): AvgPool2d(kernel_size=2, stride=1, padding=0)
  (P_5_1): BatchNorm2d(247, eps=1e-05, momentum=0.1, affine=True, track_running_stats=True)
  (P_5_2): Dropout(p=0.0, inplace=False)
  (C_6_0): Conv2d(247, 123, kernel_size=(1, 1), stride=(1, 1), bias=False)
  (C_6_1): BatchNorm2d(123, eps=1e-05, momentum=0.1, affine=True, track_running_stats=True)
  (C_6_2): Dropout(p=0.0, inplace=False)
  (Tanh_6_0): Tanh()
  (C_7_0): Conv2d(123, 247, kernel_size=(1, 1), stride=(1, 1), bias=False)
  (C_7_1): BatchNorm2d(247, eps=1e-05, momentum=0.1, affine=True, track_running_stats=True)
  (C_7_2): Dropout(p=0.2, inplace=False)
  (ReLU_7_0): ReLU()
  (P_8_0): AvgPool2d(kernel_size=2, stride=1, padding=0)
  (P_8_1): BatchNorm2d(247, eps=1e-05, momentum=0.1, affine=True, track_running_stats=True)
  (P_8_2): Dropout(p=0.0, inplace=False)
  (flatten): Flatten(start_dim=1, end_dim=-1)
  (L_9_0): Linear(in_features=154375, out_features=512, bias=False)
  (L_9_1): BatchNorm1d(512, eps=1e-05, momentum=0.1, affine=True, track_running_stats=True)
  (L_9_2): Dropout(p=0.0, inplace=False)
  (ReLU_9_0): ReLU()
  (L_10_0): Linear(in_features=512, out_features=512, bias=True)
  (L_10_2): Dropout(p=0.2, inplace=False)
  (Tanh_10_0): Tanh()
  (L_11_0): Linear(in_features=512, out_features=128, bias=False)
  (L_11_1): BatchNorm1d(128, eps=1e-05, momentum=0.1, affine=True, track_running_stats=True)
  (L_11_2): Dropout(p=0.1, inplace=False)
  (ReLU_11_0): ReLU()
  (L_12_0): Linear(in_features=128, out_features=512, bias=True)
  (L_12_2): Dropout(p=0.0, inplace=False)
  (Tanh_12_0): Tanh()
  (classification): Linear(in_features=512, out_features=10, bias=True)
)
2022-11-24 21:39:24.645 | INFO     | trainer:run:101 - Sequential(
  (C_0_0): Conv2d(1, 74, kernel_size=(3, 3), stride=(1, 1), padding=(1, 1))
  (C_0_2): Dropout(p=0.0, inplace=False)
  (ReLU_0_0): ReLU()
  (C_1_0): Conv2d(74, 118, kernel_size=(3, 3), stride=(1, 1), padding=(1, 1))
  (C_1_2): Dropout(p=0.0, inplace=False)
  (ReLU_1_0): ReLU()
  (P_2_0): MaxPool2d(kernel_size=2, stride=1, padding=0, dilation=1, ceil_mode=False)
  (P_2_2): Dropout(p=0.0, inplace=False)
  (flatten): Flatten(start_dim=1, end_dim=-1)
  (L_3_0): Linear(in_features=86022, out_features=512, bias=False)
  (L_3_1): BatchNorm1d(512, eps=1e-05, momentum=0.1, affine=True, track_running_stats=True)
  (L_3_2): Dropout(p=0.0, inplace=False)
  (ReLU_3_0): ReLU()
  (classification): Linear(in_features=512, out_features=10, bias=True)
)
2022-11-24 21:39:24.927 | INFO     | trainer:run:101 - Sequential(
  (C_0_0): Conv2d(1, 74, kernel_size=(3, 3), stride=(1, 1), padding=(1, 1))
  (C_0_2): Dropout(p=0.0, inplace=False)
  (ReLU_0_0): ReLU()
  (C_1_0): Conv2d(74, 118, kernel_size=(3, 3), stride=(1, 1), padding=(1, 1))
  (C_1_2): Dropout(p=0.0, inplace=False)
  (ReLU_1_0): ReLU()
  (P_2_0): MaxPool2d(kernel_size=2, stride=1, padding=0, dilation=1, ceil_mode=False)
  (P_2_2): Dropout(p=0.0, inplace=False)
  (flatten): Flatten(start_dim=1, end_dim=-1)
  (L_3_0): Linear(in_features=86022, out_features=512, bias=False)
  (L_3_1): BatchNorm1d(512, eps=1e-05, momentum=0.1, affine=True, track_running_stats=True)
  (L_3_2): Dropout(p=0.0, inplace=False)
  (ReLU_3_0): ReLU()
  (classification): Linear(in_features=512, out_features=10, bias=True)
)
2022-11-24 21:39:25.127 | INFO     | trainer:run:101 - Sequential(
  (C_0_0): Conv2d(1, 74, kernel_size=(3, 3), stride=(1, 1), padding=(1, 1))
  (C_0_2): Dropout(p=0.0, inplace=False)
  (ReLU_0_0): ReLU()
  (C_1_0): Conv2d(74, 118, kernel_size=(3, 3), stride=(1, 1), padding=(1, 1))
  (C_1_2): Dropout(p=0.0, inplace=False)
  (ReLU_1_0): ReLU()
  (P_2_0): MaxPool2d(kernel_size=2, stride=1, padding=0, dilation=1, ceil_mode=False)
  (P_2_2): Dropout(p=0.0, inplace=False)
  (C_3_0): Conv2d(118, 247, kernel_size=(1, 1), stride=(1, 1), bias=False)
  (C_3_1): BatchNorm2d(247, eps=1e-05, momentum=0.1, affine=True, track_running_stats=True)
  (C_3_2): Dropout(p=0.2, inplace=False)
  (ReLU_3_0): ReLU()
  (C_4_0): Conv2d(247, 150, kernel_size=(5, 5), stride=(1, 1), padding=(2, 2), bias=False)
  (C_4_1): BatchNorm2d(150, eps=1e-05, momentum=0.1, affine=True, track_running_stats=True)
  (C_4_2): Dropout(p=0.0, inplace=False)
  (ReLU_4_0): ReLU()
  (C_5_0): Conv2d(150, 175, kernel_size=(3, 3), stride=(1, 1), padding=(1, 1))
  (C_5_2): Dropout(p=0.0, inplace=False)
  (ReLU_5_0): ReLU()
  (C_6_0): Conv2d(175, 247, kernel_size=(1, 1), stride=(1, 1), bias=False)
  (C_6_1): BatchNorm2d(247, eps=1e-05, momentum=0.1, affine=True, track_running_stats=True)
  (C_6_2): Dropout(p=0.2, inplace=False)
  (ReLU_6_0): ReLU()
  (P_7_0): AvgPool2d(kernel_size=2, stride=1, padding=0)
  (P_7_1): BatchNorm2d(247, eps=1e-05, momentum=0.1, affine=True, track_running_stats=True)
  (P_7_2): Dropout(p=0.0, inplace=False)
  (C_8_0): Conv2d(247, 90, kernel_size=(5, 5), stride=(1, 1), padding=(2, 2), bias=False)
  (C_8_1): BatchNorm2d(90, eps=1e-05, momentum=0.1, affine=True, track_running_stats=True)
  (C_8_2): Dropout(p=0.5, inplace=False)
  (ReLU_8_0): ReLU()
  (P_9_0): AvgPool2d(kernel_size=2, stride=1, padding=0)
  (P_9_1): BatchNorm2d(90, eps=1e-05, momentum=0.1, affine=True, track_running_stats=True)
  (P_9_2): Dropout(p=0.3, inplace=False)
  (flatten): Flatten(start_dim=1, end_dim=-1)
  (L_10_0): Linear(in_features=56250, out_features=512, bias=False)
  (L_10_1): BatchNorm1d(512, eps=1e-05, momentum=0.1, affine=True, track_running_stats=True)
  (L_10_2): Dropout(p=0.0, inplace=False)
  (ReLU_10_0): ReLU()
  (classification): Linear(in_features=512, out_features=10, bias=True)
)
2022-11-24 21:39:25.589 | INFO     | trainer:run:101 - Sequential(
  (C_0_0): Conv2d(1, 74, kernel_size=(3, 3), stride=(1, 1), padding=(1, 1))
  (C_0_2): Dropout(p=0.0, inplace=False)
  (ReLU_0_0): ReLU()
  (C_1_0): Conv2d(74, 118, kernel_size=(3, 3), stride=(1, 1), padding=(1, 1))
  (C_1_2): Dropout(p=0.0, inplace=False)
  (ReLU_1_0): ReLU()
  (P_2_0): MaxPool2d(kernel_size=2, stride=1, padding=0, dilation=1, ceil_mode=False)
  (P_2_2): Dropout(p=0.0, inplace=False)
  (C_3_0): Conv2d(118, 118, kernel_size=(3, 3), stride=(1, 1), padding=(1, 1))
  (C_3_2): Dropout(p=0.0, inplace=False)
  (ReLU_3_0): ReLU()
  (C_4_0): Conv2d(118, 253, kernel_size=(3, 3), stride=(1, 1), padding=(1, 1), bias=False)
  (C_4_1): BatchNorm2d(253, eps=1e-05, momentum=0.1, affine=True, track_running_stats=True)
  (C_4_2): Dropout(p=0.2, inplace=False)
  (Sigmoid_4_0): Sigmoid()
  (P_5_0): AvgPool2d(kernel_size=2, stride=1, padding=0)
  (P_5_1): BatchNorm2d(253, eps=1e-05, momentum=0.1, affine=True, track_running_stats=True)
  (P_5_2): Dropout(p=0.0, inplace=False)
  (C_6_0): Conv2d(253, 247, kernel_size=(1, 1), stride=(1, 1), bias=False)
  (C_6_1): BatchNorm2d(247, eps=1e-05, momentum=0.1, affine=True, track_running_stats=True)
  (C_6_2): Dropout(p=0.2, inplace=False)
  (ReLU_6_0): ReLU()
  (P_7_0): MaxPool2d(kernel_size=3, stride=1, padding=0, dilation=1, ceil_mode=False)
  (P_7_2): Dropout(p=0.1, inplace=False)
  (flatten): Flatten(start_dim=1, end_dim=-1)
  (L_8_0): Linear(in_features=142272, out_features=512, bias=False)
  (L_8_1): BatchNorm1d(512, eps=1e-05, momentum=0.1, affine=True, track_running_stats=True)
  (L_8_2): Dropout(p=0.0, inplace=False)
  (ReLU_8_0): ReLU()
  (L_9_0): Linear(in_features=512, out_features=512, bias=True)
  (L_9_2): Dropout(p=0.2, inplace=False)
  (Tanh_9_0): Tanh()
  (L_10_0): Linear(in_features=512, out_features=128, bias=False)
  (L_10_1): BatchNorm1d(128, eps=1e-05, momentum=0.1, affine=True, track_running_stats=True)
  (L_10_2): Dropout(p=0.1, inplace=False)
  (ReLU_10_0): ReLU()
  (L_11_0): Linear(in_features=128, out_features=256, bias=False)
  (L_11_1): BatchNorm1d(256, eps=1e-05, momentum=0.1, affine=True, track_running_stats=True)
  (L_11_2): Dropout(p=0.2, inplace=False)
  (ReLU_11_0): ReLU()
  (L_12_0): Linear(in_features=256, out_features=128, bias=False)
  (L_12_1): BatchNorm1d(128, eps=1e-05, momentum=0.1, affine=True, track_running_stats=True)
  (L_12_2): Dropout(p=0.1, inplace=False)
  (Tanh_12_0): Tanh()
  (L_13_0): Linear(in_features=128, out_features=512, bias=True)
  (L_13_2): Dropout(p=0.0, inplace=False)
  (Tanh_13_0): Tanh()
  (classification): Linear(in_features=512, out_features=10, bias=True)
)
2022-11-24 21:39:25.830 | INFO     | trainer:run:101 - Sequential(
  (C_0_0): Conv2d(1, 74, kernel_size=(3, 3), stride=(1, 1), padding=(1, 1))
  (C_0_2): Dropout(p=0.0, inplace=False)
  (ReLU_0_0): ReLU()
  (C_1_0): Conv2d(74, 118, kernel_size=(3, 3), stride=(1, 1), padding=(1, 1))
  (C_1_2): Dropout(p=0.0, inplace=False)
  (ReLU_1_0): ReLU()
  (C_2_0): Conv2d(118, 123, kernel_size=(1, 1), stride=(1, 1))
  (C_2_2): Dropout(p=0.1, inplace=False)
  (ReLU_2_0): ReLU()
  (P_3_0): MaxPool2d(kernel_size=5, stride=1, padding=0, dilation=1, ceil_mode=False)
  (P_3_1): BatchNorm2d(123, eps=1e-05, momentum=0.1, affine=True, track_running_stats=True)
  (P_3_2): Dropout(p=0.0, inplace=False)
  (C_4_0): Conv2d(123, 247, kernel_size=(1, 1), stride=(1, 1), bias=False)
  (C_4_1): BatchNorm2d(247, eps=1e-05, momentum=0.1, affine=True, track_running_stats=True)
  (C_4_2): Dropout(p=0.2, inplace=False)
  (ReLU_4_0): ReLU()
  (C_5_0): Conv2d(247, 123, kernel_size=(1, 1), stride=(1, 1), bias=False)
  (C_5_1): BatchNorm2d(123, eps=1e-05, momentum=0.1, affine=True, track_running_stats=True)
  (C_5_2): Dropout(p=0.0, inplace=False)
  (Tanh_5_0): Tanh()
  (flatten): Flatten(start_dim=1, end_dim=-1)
  (L_6_0): Linear(in_features=70848, out_features=512, bias=False)
  (L_6_1): BatchNorm1d(512, eps=1e-05, momentum=0.1, affine=True, track_running_stats=True)
  (L_6_2): Dropout(p=0.0, inplace=False)
  (ReLU_6_0): ReLU()
  (classification): Linear(in_features=512, out_features=10, bias=True)
)
2022-11-24 21:39:26.064 | INFO     | trainer:run:101 - Sequential(
  (C_0_0): Conv2d(1, 74, kernel_size=(3, 3), stride=(1, 1), padding=(1, 1))
  (C_0_2): Dropout(p=0.0, inplace=False)
  (ReLU_0_0): ReLU()
  (C_1_0): Conv2d(74, 118, kernel_size=(3, 3), stride=(1, 1), padding=(1, 1))
  (C_1_2): Dropout(p=0.0, inplace=False)
  (ReLU_1_0): ReLU()
  (P_2_0): MaxPool2d(kernel_size=5, stride=1, padding=0, dilation=1, ceil_mode=False)
  (P_2_1): BatchNorm2d(118, eps=1e-05, momentum=0.1, affine=True, track_running_stats=True)
  (P_2_2): Dropout(p=0.0, inplace=False)
  (C_3_0): Conv2d(118, 123, kernel_size=(1, 1), stride=(1, 1))
  (C_3_2): Dropout(p=0.1, inplace=False)
  (ReLU_3_0): ReLU()
  (C_4_0): Conv2d(123, 247, kernel_size=(1, 1), stride=(1, 1), bias=False)
  (C_4_1): BatchNorm2d(247, eps=1e-05, momentum=0.1, affine=True, track_running_stats=True)
  (C_4_2): Dropout(p=0.2, inplace=False)
  (ReLU_4_0): ReLU()
  (C_5_0): Conv2d(247, 123, kernel_size=(1, 1), stride=(1, 1), bias=False)
  (C_5_1): BatchNorm2d(123, eps=1e-05, momentum=0.1, affine=True, track_running_stats=True)
  (C_5_2): Dropout(p=0.0, inplace=False)
  (Tanh_5_0): Tanh()
  (flatten): Flatten(start_dim=1, end_dim=-1)
  (L_6_0): Linear(in_features=70848, out_features=512, bias=False)
  (L_6_1): BatchNorm1d(512, eps=1e-05, momentum=0.1, affine=True, track_running_stats=True)
  (L_6_2): Dropout(p=0.0, inplace=False)
  (ReLU_6_0): ReLU()
  (classification): Linear(in_features=512, out_features=10, bias=True)
)
2022-11-24 21:39:26.344 | INFO     | trainer:run:101 - Sequential(
  (C_0_0): Conv2d(1, 74, kernel_size=(3, 3), stride=(1, 1), padding=(1, 1))
  (C_0_2): Dropout(p=0.0, inplace=False)
  (ReLU_0_0): ReLU()
  (C_1_0): Conv2d(74, 118, kernel_size=(3, 3), stride=(1, 1), padding=(1, 1))
  (C_1_2): Dropout(p=0.0, inplace=False)
  (ReLU_1_0): ReLU()
  (P_2_0): MaxPool2d(kernel_size=2, stride=1, padding=0, dilation=1, ceil_mode=False)
  (P_2_2): Dropout(p=0.0, inplace=False)
  (flatten): Flatten(start_dim=1, end_dim=-1)
  (L_3_0): Linear(in_features=86022, out_features=512, bias=False)
  (L_3_1): BatchNorm1d(512, eps=1e-05, momentum=0.1, affine=True, track_running_stats=True)
  (L_3_2): Dropout(p=0.0, inplace=False)
  (ReLU_3_0): ReLU()
  (classification): Linear(in_features=512, out_features=10, bias=True)
)
2022-11-24 21:39:26.646 | INFO     | trainer:run:101 - Sequential(
  (C_0_0): Conv2d(1, 74, kernel_size=(3, 3), stride=(1, 1), padding=(1, 1))
  (C_0_2): Dropout(p=0.0, inplace=False)
  (ReLU_0_0): ReLU()
  (C_1_0): Conv2d(74, 118, kernel_size=(3, 3), stride=(1, 1), padding=(1, 1))
  (C_1_2): Dropout(p=0.0, inplace=False)
  (ReLU_1_0): ReLU()
  (flatten): Flatten(start_dim=1, end_dim=-1)
  (L_2_0): Linear(in_features=92512, out_features=512, bias=False)
  (L_2_1): BatchNorm1d(512, eps=1e-05, momentum=0.1, affine=True, track_running_stats=True)
  (L_2_2): Dropout(p=0.0, inplace=False)
  (ReLU_2_0): ReLU()
  (classification): Linear(in_features=512, out_features=10, bias=True)
)
2022-11-24 21:39:27.042 | INFO     | trainer:run:101 - Sequential(
  (C_0_0): Conv2d(1, 74, kernel_size=(3, 3), stride=(1, 1), padding=(1, 1))
  (C_0_2): Dropout(p=0.0, inplace=False)
  (ReLU_0_0): ReLU()
  (C_1_0): Conv2d(74, 118, kernel_size=(3, 3), stride=(1, 1), padding=(1, 1))
  (C_1_2): Dropout(p=0.0, inplace=False)
  (ReLU_1_0): ReLU()
  (C_2_0): Conv2d(118, 189, kernel_size=(5, 5), stride=(1, 1), padding=(2, 2))
  (C_2_2): Dropout(p=0.1, inplace=False)
  (Sigmoid_2_0): Sigmoid()
  (P_3_0): MaxPool2d(kernel_size=5, stride=1, padding=0, dilation=1, ceil_mode=False)
  (P_3_1): BatchNorm2d(189, eps=1e-05, momentum=0.1, affine=True, track_running_stats=True)
  (P_3_2): Dropout(p=0.0, inplace=False)
  (C_4_0): Conv2d(189, 253, kernel_size=(3, 3), stride=(1, 1), padding=(1, 1), bias=False)
  (C_4_1): BatchNorm2d(253, eps=1e-05, momentum=0.1, affine=True, track_running_stats=True)
  (C_4_2): Dropout(p=0.2, inplace=False)
  (Sigmoid_4_0): Sigmoid()
  (P_5_0): AvgPool2d(kernel_size=2, stride=1, padding=0)
  (P_5_1): BatchNorm2d(253, eps=1e-05, momentum=0.1, affine=True, track_running_stats=True)
  (P_5_2): Dropout(p=0.0, inplace=False)
  (C_6_0): Conv2d(253, 247, kernel_size=(1, 1), stride=(1, 1), bias=False)
  (C_6_1): BatchNorm2d(247, eps=1e-05, momentum=0.1, affine=True, track_running_stats=True)
  (C_6_2): Dropout(p=0.2, inplace=False)
  (ReLU_6_0): ReLU()
  (C_7_0): Conv2d(247, 247, kernel_size=(1, 1), stride=(1, 1), bias=False)
  (C_7_1): BatchNorm2d(247, eps=1e-05, momentum=0.1, affine=True, track_running_stats=True)
  (C_7_2): Dropout(p=0.2, inplace=False)
  (ReLU_7_0): ReLU()
  (P_8_0): AvgPool2d(kernel_size=2, stride=1, padding=0)
  (P_8_1): BatchNorm2d(247, eps=1e-05, momentum=0.1, affine=True, track_running_stats=True)
  (P_8_2): Dropout(p=0.0, inplace=False)
  (flatten): Flatten(start_dim=1, end_dim=-1)
  (L_9_0): Linear(in_features=119548, out_features=512, bias=False)
  (L_9_1): BatchNorm1d(512, eps=1e-05, momentum=0.1, affine=True, track_running_stats=True)
  (L_9_2): Dropout(p=0.0, inplace=False)
  (ReLU_9_0): ReLU()
  (L_10_0): Linear(in_features=512, out_features=512, bias=True)
  (L_10_2): Dropout(p=0.2, inplace=False)
  (Tanh_10_0): Tanh()
  (L_11_0): Linear(in_features=512, out_features=128, bias=False)
  (L_11_1): BatchNorm1d(128, eps=1e-05, momentum=0.1, affine=True, track_running_stats=True)
  (L_11_2): Dropout(p=0.1, inplace=False)
  (ReLU_11_0): ReLU()
  (L_12_0): Linear(in_features=128, out_features=512, bias=True)
  (L_12_2): Dropout(p=0.0, inplace=False)
  (Tanh_12_0): Tanh()
  (classification): Linear(in_features=512, out_features=10, bias=True)
)
2022-11-24 21:39:27.348 | INFO     | trainer:run:101 - Sequential(
  (C_0_0): Conv2d(1, 74, kernel_size=(3, 3), stride=(1, 1), padding=(1, 1))
  (C_0_2): Dropout(p=0.0, inplace=False)
  (ReLU_0_0): ReLU()
  (C_1_0): Conv2d(74, 118, kernel_size=(3, 3), stride=(1, 1), padding=(1, 1))
  (C_1_2): Dropout(p=0.0, inplace=False)
  (ReLU_1_0): ReLU()
  (flatten): Flatten(start_dim=1, end_dim=-1)
  (L_2_0): Linear(in_features=92512, out_features=512, bias=False)
  (L_2_1): BatchNorm1d(512, eps=1e-05, momentum=0.1, affine=True, track_running_stats=True)
  (L_2_2): Dropout(p=0.0, inplace=False)
  (ReLU_2_0): ReLU()
  (classification): Linear(in_features=512, out_features=10, bias=True)
)
2022-11-24 21:39:27.645 | INFO     | trainer:run:101 - Sequential(
  (C_0_0): Conv2d(1, 74, kernel_size=(3, 3), stride=(1, 1), padding=(1, 1))
  (C_0_2): Dropout(p=0.0, inplace=False)
  (ReLU_0_0): ReLU()
  (C_1_0): Conv2d(74, 118, kernel_size=(3, 3), stride=(1, 1), padding=(1, 1))
  (C_1_2): Dropout(p=0.0, inplace=False)
  (ReLU_1_0): ReLU()
  (P_2_0): MaxPool2d(kernel_size=2, stride=1, padding=0, dilation=1, ceil_mode=False)
  (P_2_2): Dropout(p=0.0, inplace=False)
  (C_3_0): Conv2d(118, 253, kernel_size=(3, 3), stride=(1, 1), padding=(1, 1), bias=False)
  (C_3_1): BatchNorm2d(253, eps=1e-05, momentum=0.1, affine=True, track_running_stats=True)
  (C_3_2): Dropout(p=0.2, inplace=False)
  (Sigmoid_3_0): Sigmoid()
  (C_4_0): Conv2d(253, 247, kernel_size=(1, 1), stride=(1, 1), bias=False)
  (C_4_1): BatchNorm2d(247, eps=1e-05, momentum=0.1, affine=True, track_running_stats=True)
  (C_4_2): Dropout(p=0.2, inplace=False)
  (ReLU_4_0): ReLU()
  (C_5_0): Conv2d(247, 123, kernel_size=(1, 1), stride=(1, 1), bias=False)
  (C_5_1): BatchNorm2d(123, eps=1e-05, momentum=0.1, affine=True, track_running_stats=True)
  (C_5_2): Dropout(p=0.0, inplace=False)
  (Tanh_5_0): Tanh()
  (flatten): Flatten(start_dim=1, end_dim=-1)
  (L_6_0): Linear(in_features=89667, out_features=512, bias=False)
  (L_6_1): BatchNorm1d(512, eps=1e-05, momentum=0.1, affine=True, track_running_stats=True)
  (L_6_2): Dropout(p=0.0, inplace=False)
  (ReLU_6_0): ReLU()
  (classification): Linear(in_features=512, out_features=10, bias=True)
)
2022-11-24 21:39:28.148 | INFO     | trainer:run:101 - Sequential(
  (C_0_0): Conv2d(1, 74, kernel_size=(3, 3), stride=(1, 1), padding=(1, 1))
  (C_0_2): Dropout(p=0.0, inplace=False)
  (ReLU_0_0): ReLU()
  (C_1_0): Conv2d(74, 118, kernel_size=(3, 3), stride=(1, 1), padding=(1, 1))
  (C_1_2): Dropout(p=0.0, inplace=False)
  (ReLU_1_0): ReLU()
  (C_2_0): Conv2d(118, 253, kernel_size=(3, 3), stride=(1, 1), padding=(1, 1), bias=False)
  (C_2_1): BatchNorm2d(253, eps=1e-05, momentum=0.1, affine=True, track_running_stats=True)
  (C_2_2): Dropout(p=0.2, inplace=False)
  (Sigmoid_2_0): Sigmoid()
  (P_3_0): MaxPool2d(kernel_size=2, stride=1, padding=0, dilation=1, ceil_mode=False)
  (P_3_2): Dropout(p=0.0, inplace=False)
  (C_4_0): Conv2d(253, 247, kernel_size=(1, 1), stride=(1, 1), bias=False)
  (C_4_1): BatchNorm2d(247, eps=1e-05, momentum=0.1, affine=True, track_running_stats=True)
  (C_4_2): Dropout(p=0.2, inplace=False)
  (ReLU_4_0): ReLU()
  (P_5_0): AvgPool2d(kernel_size=2, stride=1, padding=0)
  (P_5_1): BatchNorm2d(247, eps=1e-05, momentum=0.1, affine=True, track_running_stats=True)
  (P_5_2): Dropout(p=0.0, inplace=False)
  (C_6_0): Conv2d(247, 123, kernel_size=(1, 1), stride=(1, 1), bias=False)
  (C_6_1): BatchNorm2d(123, eps=1e-05, momentum=0.1, affine=True, track_running_stats=True)
  (C_6_2): Dropout(p=0.0, inplace=False)
  (Tanh_6_0): Tanh()
  (C_7_0): Conv2d(123, 247, kernel_size=(1, 1), stride=(1, 1), bias=False)
  (C_7_1): BatchNorm2d(247, eps=1e-05, momentum=0.1, affine=True, track_running_stats=True)
  (C_7_2): Dropout(p=0.2, inplace=False)
  (ReLU_7_0): ReLU()
  (P_8_0): AvgPool2d(kernel_size=2, stride=1, padding=0)
  (P_8_1): BatchNorm2d(247, eps=1e-05, momentum=0.1, affine=True, track_running_stats=True)
  (P_8_2): Dropout(p=0.0, inplace=False)
  (flatten): Flatten(start_dim=1, end_dim=-1)
  (L_9_0): Linear(in_features=154375, out_features=512, bias=False)
  (L_9_1): BatchNorm1d(512, eps=1e-05, momentum=0.1, affine=True, track_running_stats=True)
  (L_9_2): Dropout(p=0.0, inplace=False)
  (ReLU_9_0): ReLU()
  (L_10_0): Linear(in_features=512, out_features=512, bias=True)
  (L_10_2): Dropout(p=0.2, inplace=False)
  (Tanh_10_0): Tanh()
  (L_11_0): Linear(in_features=512, out_features=128, bias=False)
  (L_11_1): BatchNorm1d(128, eps=1e-05, momentum=0.1, affine=True, track_running_stats=True)
  (L_11_2): Dropout(p=0.1, inplace=False)
  (ReLU_11_0): ReLU()
  (L_12_0): Linear(in_features=128, out_features=512, bias=True)
  (L_12_2): Dropout(p=0.0, inplace=False)
  (Tanh_12_0): Tanh()
  (classification): Linear(in_features=512, out_features=10, bias=True)
)
2022-11-24 21:39:28.548 | INFO     | trainer:run:101 - Sequential(
  (C_0_0): Conv2d(1, 74, kernel_size=(3, 3), stride=(1, 1), padding=(1, 1))
  (C_0_2): Dropout(p=0.0, inplace=False)
  (ReLU_0_0): ReLU()
  (C_1_0): Conv2d(74, 118, kernel_size=(3, 3), stride=(1, 1), padding=(1, 1))
  (C_1_2): Dropout(p=0.0, inplace=False)
  (ReLU_1_0): ReLU()
  (C_2_0): Conv2d(118, 253, kernel_size=(3, 3), stride=(1, 1), padding=(1, 1), bias=False)
  (C_2_1): BatchNorm2d(253, eps=1e-05, momentum=0.1, affine=True, track_running_stats=True)
  (C_2_2): Dropout(p=0.2, inplace=False)
  (Sigmoid_2_0): Sigmoid()
  (P_3_0): MaxPool2d(kernel_size=5, stride=1, padding=0, dilation=1, ceil_mode=False)
  (P_3_1): BatchNorm2d(253, eps=1e-05, momentum=0.1, affine=True, track_running_stats=True)
  (P_3_2): Dropout(p=0.0, inplace=False)
  (C_4_0): Conv2d(253, 247, kernel_size=(1, 1), stride=(1, 1), bias=False)
  (C_4_1): BatchNorm2d(247, eps=1e-05, momentum=0.1, affine=True, track_running_stats=True)
  (C_4_2): Dropout(p=0.2, inplace=False)
  (ReLU_4_0): ReLU()
  (P_5_0): AvgPool2d(kernel_size=2, stride=1, padding=0)
  (P_5_1): BatchNorm2d(247, eps=1e-05, momentum=0.1, affine=True, track_running_stats=True)
  (P_5_2): Dropout(p=0.0, inplace=False)
  (C_6_0): Conv2d(247, 123, kernel_size=(1, 1), stride=(1, 1), bias=False)
  (C_6_1): BatchNorm2d(123, eps=1e-05, momentum=0.1, affine=True, track_running_stats=True)
  (C_6_2): Dropout(p=0.0, inplace=False)
  (Tanh_6_0): Tanh()
  (C_7_0): Conv2d(123, 247, kernel_size=(1, 1), stride=(1, 1), bias=False)
  (C_7_1): BatchNorm2d(247, eps=1e-05, momentum=0.1, affine=True, track_running_stats=True)
  (C_7_2): Dropout(p=0.2, inplace=False)
  (ReLU_7_0): ReLU()
  (P_8_0): AvgPool2d(kernel_size=2, stride=1, padding=0)
  (P_8_1): BatchNorm2d(247, eps=1e-05, momentum=0.1, affine=True, track_running_stats=True)
  (P_8_2): Dropout(p=0.0, inplace=False)
  (flatten): Flatten(start_dim=1, end_dim=-1)
  (L_9_0): Linear(in_features=119548, out_features=512, bias=False)
  (L_9_1): BatchNorm1d(512, eps=1e-05, momentum=0.1, affine=True, track_running_stats=True)
  (L_9_2): Dropout(p=0.0, inplace=False)
  (ReLU_9_0): ReLU()
  (L_10_0): Linear(in_features=512, out_features=512, bias=True)
  (L_10_2): Dropout(p=0.2, inplace=False)
  (Tanh_10_0): Tanh()
  (L_11_0): Linear(in_features=512, out_features=128, bias=False)
  (L_11_1): BatchNorm1d(128, eps=1e-05, momentum=0.1, affine=True, track_running_stats=True)
  (L_11_2): Dropout(p=0.1, inplace=False)
  (ReLU_11_0): ReLU()
  (L_12_0): Linear(in_features=128, out_features=512, bias=True)
  (L_12_2): Dropout(p=0.0, inplace=False)
  (Tanh_12_0): Tanh()
  (classification): Linear(in_features=512, out_features=10, bias=True)
)
2022-11-24 21:39:29.130 | INFO     | trainer:run:101 - Sequential(
  (C_0_0): Conv2d(1, 74, kernel_size=(3, 3), stride=(1, 1), padding=(1, 1))
  (C_0_2): Dropout(p=0.0, inplace=False)
  (ReLU_0_0): ReLU()
  (C_1_0): Conv2d(74, 118, kernel_size=(3, 3), stride=(1, 1), padding=(1, 1))
  (C_1_2): Dropout(p=0.0, inplace=False)
  (ReLU_1_0): ReLU()
  (C_2_0): Conv2d(118, 253, kernel_size=(3, 3), stride=(1, 1), padding=(1, 1), bias=False)
  (C_2_1): BatchNorm2d(253, eps=1e-05, momentum=0.1, affine=True, track_running_stats=True)
  (C_2_2): Dropout(p=0.2, inplace=False)
  (Sigmoid_2_0): Sigmoid()
  (P_3_0): MaxPool2d(kernel_size=2, stride=1, padding=0, dilation=1, ceil_mode=False)
  (P_3_2): Dropout(p=0.0, inplace=False)
  (C_4_0): Conv2d(253, 247, kernel_size=(1, 1), stride=(1, 1), bias=False)
  (C_4_1): BatchNorm2d(247, eps=1e-05, momentum=0.1, affine=True, track_running_stats=True)
  (C_4_2): Dropout(p=0.2, inplace=False)
  (ReLU_4_0): ReLU()
  (flatten): Flatten(start_dim=1, end_dim=-1)
  (L_5_0): Linear(in_features=180063, out_features=512, bias=False)
  (L_5_1): BatchNorm1d(512, eps=1e-05, momentum=0.1, affine=True, track_running_stats=True)
  (L_5_2): Dropout(p=0.0, inplace=False)
  (ReLU_5_0): ReLU()
  (classification): Linear(in_features=512, out_features=10, bias=True)
)
2022-11-24 21:39:29.557 | INFO     | trainer:run:101 - Sequential(
  (C_0_0): Conv2d(1, 74, kernel_size=(3, 3), stride=(1, 1), padding=(1, 1))
  (C_0_2): Dropout(p=0.0, inplace=False)
  (ReLU_0_0): ReLU()
  (C_1_0): Conv2d(74, 118, kernel_size=(3, 3), stride=(1, 1), padding=(1, 1))
  (C_1_2): Dropout(p=0.0, inplace=False)
  (ReLU_1_0): ReLU()
  (C_2_0): Conv2d(118, 247, kernel_size=(1, 1), stride=(1, 1), bias=False)
  (C_2_1): BatchNorm2d(247, eps=1e-05, momentum=0.1, affine=True, track_running_stats=True)
  (C_2_2): Dropout(p=0.2, inplace=False)
  (ReLU_2_0): ReLU()
  (P_3_0): MaxPool2d(kernel_size=2, stride=1, padding=0, dilation=1, ceil_mode=False)
  (P_3_2): Dropout(p=0.0, inplace=False)
  (C_4_0): Conv2d(247, 150, kernel_size=(5, 5), stride=(1, 1), padding=(2, 2), bias=False)
  (C_4_1): BatchNorm2d(150, eps=1e-05, momentum=0.1, affine=True, track_running_stats=True)
  (C_4_2): Dropout(p=0.0, inplace=False)
  (ReLU_4_0): ReLU()
  (C_5_0): Conv2d(150, 175, kernel_size=(3, 3), stride=(1, 1), padding=(1, 1))
  (C_5_2): Dropout(p=0.0, inplace=False)
  (ReLU_5_0): ReLU()
  (flatten): Flatten(start_dim=1, end_dim=-1)
  (L_6_0): Linear(in_features=127575, out_features=512, bias=False)
  (L_6_1): BatchNorm1d(512, eps=1e-05, momentum=0.1, affine=True, track_running_stats=True)
  (L_6_2): Dropout(p=0.0, inplace=False)
  (ReLU_6_0): ReLU()
  (classification): Linear(in_features=512, out_features=10, bias=True)
)
2022-11-24 21:39:29.842 | INFO     | trainer:run:101 - Sequential(
  (C_0_0): Conv2d(1, 74, kernel_size=(3, 3), stride=(1, 1), padding=(1, 1))
  (C_0_2): Dropout(p=0.0, inplace=False)
  (ReLU_0_0): ReLU()
  (C_1_0): Conv2d(74, 118, kernel_size=(3, 3), stride=(1, 1), padding=(1, 1))
  (C_1_2): Dropout(p=0.0, inplace=False)
  (ReLU_1_0): ReLU()
  (P_2_0): MaxPool2d(kernel_size=2, stride=1, padding=0, dilation=1, ceil_mode=False)
  (P_2_2): Dropout(p=0.0, inplace=False)
  (flatten): Flatten(start_dim=1, end_dim=-1)
  (L_3_0): Linear(in_features=86022, out_features=512, bias=False)
  (L_3_1): BatchNorm1d(512, eps=1e-05, momentum=0.1, affine=True, track_running_stats=True)
  (L_3_2): Dropout(p=0.0, inplace=False)
  (Sigmoid_3_0): Sigmoid()
  (classification): Linear(in_features=512, out_features=10, bias=True)
)
2022-11-24 21:39:30.125 | INFO     | trainer:run:101 - Sequential(
  (C_0_0): Conv2d(1, 74, kernel_size=(3, 3), stride=(1, 1), padding=(1, 1))
  (C_0_2): Dropout(p=0.0, inplace=False)
  (ReLU_0_0): ReLU()
  (C_1_0): Conv2d(74, 118, kernel_size=(3, 3), stride=(1, 1), padding=(1, 1))
  (C_1_2): Dropout(p=0.0, inplace=False)
  (ReLU_1_0): ReLU()
  (P_2_0): MaxPool2d(kernel_size=2, stride=1, padding=0, dilation=1, ceil_mode=False)
  (P_2_2): Dropout(p=0.0, inplace=False)
  (flatten): Flatten(start_dim=1, end_dim=-1)
  (L_3_0): Linear(in_features=86022, out_features=512, bias=False)
  (L_3_1): BatchNorm1d(512, eps=1e-05, momentum=0.1, affine=True, track_running_stats=True)
  (L_3_2): Dropout(p=0.0, inplace=False)
  (ReLU_3_0): ReLU()
  (classification): Linear(in_features=512, out_features=10, bias=True)
)
2022-11-24 21:39:30.306 | INFO     | trainer:run:101 - Sequential(
  (C_0_0): Conv2d(1, 74, kernel_size=(3, 3), stride=(1, 1), padding=(1, 1))
  (C_0_2): Dropout(p=0.0, inplace=False)
  (ReLU_0_0): ReLU()
  (C_1_0): Conv2d(74, 118, kernel_size=(3, 3), stride=(1, 1), padding=(1, 1))
  (C_1_2): Dropout(p=0.0, inplace=False)
  (ReLU_1_0): ReLU()
  (P_2_0): MaxPool2d(kernel_size=2, stride=1, padding=0, dilation=1, ceil_mode=False)
  (P_2_2): Dropout(p=0.0, inplace=False)
  (C_3_0): Conv2d(118, 118, kernel_size=(3, 3), stride=(1, 1), padding=(1, 1))
  (C_3_2): Dropout(p=0.0, inplace=False)
  (ReLU_3_0): ReLU()
  (C_4_0): Conv2d(118, 253, kernel_size=(3, 3), stride=(1, 1), padding=(1, 1), bias=False)
  (C_4_1): BatchNorm2d(253, eps=1e-05, momentum=0.1, affine=True, track_running_stats=True)
  (C_4_2): Dropout(p=0.2, inplace=False)
  (Sigmoid_4_0): Sigmoid()
  (C_5_0): Conv2d(253, 247, kernel_size=(1, 1), stride=(1, 1), bias=False)
  (C_5_1): BatchNorm2d(247, eps=1e-05, momentum=0.1, affine=True, track_running_stats=True)
  (C_5_2): Dropout(p=0.2, inplace=False)
  (ReLU_5_0): ReLU()
  (C_6_0): Conv2d(247, 247, kernel_size=(1, 1), stride=(1, 1), bias=False)
  (C_6_1): BatchNorm2d(247, eps=1e-05, momentum=0.1, affine=True, track_running_stats=True)
  (C_6_2): Dropout(p=0.2, inplace=False)
  (ReLU_6_0): ReLU()
  (P_7_0): AvgPool2d(kernel_size=2, stride=1, padding=0)
  (P_7_1): BatchNorm2d(247, eps=1e-05, momentum=0.1, affine=True, track_running_stats=True)
  (P_7_2): Dropout(p=0.0, inplace=False)
  (C_8_0): Conv2d(247, 90, kernel_size=(5, 5), stride=(1, 1), padding=(2, 2), bias=False)
  (C_8_1): BatchNorm2d(90, eps=1e-05, momentum=0.1, affine=True, track_running_stats=True)
  (C_8_2): Dropout(p=0.5, inplace=False)
  (ReLU_8_0): ReLU()
  (P_9_0): MaxPool2d(kernel_size=3, stride=1, padding=0, dilation=1, ceil_mode=False)
  (P_9_2): Dropout(p=0.1, inplace=False)
  (flatten): Flatten(start_dim=1, end_dim=-1)
  (L_10_0): Linear(in_features=51840, out_features=512, bias=False)
  (L_10_1): BatchNorm1d(512, eps=1e-05, momentum=0.1, affine=True, track_running_stats=True)
  (L_10_2): Dropout(p=0.0, inplace=False)
  (ReLU_10_0): ReLU()
  (classification): Linear(in_features=512, out_features=10, bias=True)
)
2022-11-24 21:39:30.356 | INFO     | trainer:run:101 - Sequential(
  (C_0_0): Conv2d(1, 173, kernel_size=(5, 5), stride=(1, 1), padding=(2, 2), bias=False)
  (C_0_1): BatchNorm2d(173, eps=1e-05, momentum=0.1, affine=True, track_running_stats=True)
  (C_0_2): Dropout(p=0.3, inplace=False)
  (ReLU_0_0): ReLU()
  (C_1_0): Conv2d(173, 118, kernel_size=(3, 3), stride=(1, 1), padding=(1, 1))
  (C_1_2): Dropout(p=0.0, inplace=False)
  (ReLU_1_0): ReLU()
  (P_2_0): MaxPool2d(kernel_size=2, stride=1, padding=0, dilation=1, ceil_mode=False)
  (P_2_2): Dropout(p=0.0, inplace=False)
  (C_3_0): Conv2d(118, 247, kernel_size=(1, 1), stride=(1, 1), bias=False)
  (C_3_1): BatchNorm2d(247, eps=1e-05, momentum=0.1, affine=True, track_running_stats=True)
  (C_3_2): Dropout(p=0.2, inplace=False)
  (ReLU_3_0): ReLU()
  (C_4_0): Conv2d(247, 150, kernel_size=(5, 5), stride=(1, 1), padding=(2, 2), bias=False)
  (C_4_1): BatchNorm2d(150, eps=1e-05, momentum=0.1, affine=True, track_running_stats=True)
  (C_4_2): Dropout(p=0.0, inplace=False)
  (ReLU_4_0): ReLU()
  (P_5_0): AvgPool2d(kernel_size=2, stride=1, padding=0)
  (P_5_1): BatchNorm2d(150, eps=1e-05, momentum=0.1, affine=True, track_running_stats=True)
  (P_5_2): Dropout(p=0.0, inplace=False)
  (C_6_0): Conv2d(150, 175, kernel_size=(3, 3), stride=(1, 1), padding=(1, 1))
  (C_6_2): Dropout(p=0.0, inplace=False)
  (ReLU_6_0): ReLU()
  (P_7_0): AvgPool2d(kernel_size=2, stride=1, padding=0)
  (P_7_1): BatchNorm2d(175, eps=1e-05, momentum=0.1, affine=True, track_running_stats=True)
  (P_7_2): Dropout(p=0.3, inplace=False)
  (C_8_0): Conv2d(175, 37, kernel_size=(5, 5), stride=(1, 1), padding=(2, 2))
  (C_8_2): Dropout(p=0.3, inplace=False)
  (ReLU_8_0): ReLU()
  (P_9_0): MaxPool2d(kernel_size=3, stride=1, padding=0, dilation=1, ceil_mode=False)
  (P_9_2): Dropout(p=0.2, inplace=False)
  (flatten): Flatten(start_dim=1, end_dim=-1)
  (L_10_0): Linear(in_features=19573, out_features=256, bias=False)
  (L_10_1): BatchNorm1d(256, eps=1e-05, momentum=0.1, affine=True, track_running_stats=True)
  (L_10_2): Dropout(p=0.0, inplace=False)
  (ReLU_10_0): ReLU()
  (L_11_0): Linear(in_features=256, out_features=512, bias=True)
  (L_11_2): Dropout(p=0.2, inplace=False)
  (Tanh_11_0): Tanh()
  (L_12_0): Linear(in_features=512, out_features=128, bias=False)
  (L_12_1): BatchNorm1d(128, eps=1e-05, momentum=0.1, affine=True, track_running_stats=True)
  (L_12_2): Dropout(p=0.1, inplace=False)
  (ReLU_12_0): ReLU()
  (L_13_0): Linear(in_features=128, out_features=256, bias=False)
  (L_13_1): BatchNorm1d(256, eps=1e-05, momentum=0.1, affine=True, track_running_stats=True)
  (L_13_2): Dropout(p=0.2, inplace=False)
  (ReLU_13_0): ReLU()
  (L_14_0): Linear(in_features=256, out_features=128, bias=False)
  (L_14_1): BatchNorm1d(128, eps=1e-05, momentum=0.1, affine=True, track_running_stats=True)
  (L_14_2): Dropout(p=0.1, inplace=False)
  (Tanh_14_0): Tanh()
  (L_15_0): Linear(in_features=128, out_features=512, bias=True)
  (L_15_2): Dropout(p=0.0, inplace=False)
  (Tanh_15_0): Tanh()
  (classification): Linear(in_features=512, out_features=10, bias=True)
)
2022-11-24 21:39:30.539 | INFO     | trainer:run:101 - Sequential(
  (C_0_0): Conv2d(1, 74, kernel_size=(3, 3), stride=(1, 1), padding=(1, 1))
  (C_0_2): Dropout(p=0.0, inplace=False)
  (ReLU_0_0): ReLU()
  (flatten): Flatten(start_dim=1, end_dim=-1)
  (L_1_0): Linear(in_features=58016, out_features=512, bias=False)
  (L_1_1): BatchNorm1d(512, eps=1e-05, momentum=0.1, affine=True, track_running_stats=True)
  (L_1_2): Dropout(p=0.0, inplace=False)
  (ReLU_1_0): ReLU()
  (classification): Linear(in_features=512, out_features=10, bias=True)
)
2022-11-24 21:39:30.772 | INFO     | trainer:run:101 - Sequential(
  (C_0_0): Conv2d(1, 74, kernel_size=(3, 3), stride=(1, 1), padding=(1, 1))
  (C_0_2): Dropout(p=0.0, inplace=False)
  (ReLU_0_0): ReLU()
  (C_1_0): Conv2d(74, 118, kernel_size=(3, 3), stride=(1, 1), padding=(1, 1))
  (C_1_2): Dropout(p=0.0, inplace=False)
  (ReLU_1_0): ReLU()
  (C_2_0): Conv2d(118, 247, kernel_size=(1, 1), stride=(1, 1), bias=False)
  (C_2_1): BatchNorm2d(247, eps=1e-05, momentum=0.1, affine=True, track_running_stats=True)
  (C_2_2): Dropout(p=0.2, inplace=False)
  (ReLU_2_0): ReLU()
  (P_3_0): MaxPool2d(kernel_size=5, stride=1, padding=0, dilation=1, ceil_mode=False)
  (P_3_1): BatchNorm2d(247, eps=1e-05, momentum=0.1, affine=True, track_running_stats=True)
  (P_3_2): Dropout(p=0.0, inplace=False)
  (C_4_0): Conv2d(247, 123, kernel_size=(1, 1), stride=(1, 1), bias=False)
  (C_4_1): BatchNorm2d(123, eps=1e-05, momentum=0.1, affine=True, track_running_stats=True)
  (C_4_2): Dropout(p=0.0, inplace=False)
  (Tanh_4_0): Tanh()
  (C_5_0): Conv2d(123, 123, kernel_size=(1, 1), stride=(1, 1), bias=False)
  (C_5_1): BatchNorm2d(123, eps=1e-05, momentum=0.1, affine=True, track_running_stats=True)
  (C_5_2): Dropout(p=0.0, inplace=False)
  (Tanh_5_0): Tanh()
  (flatten): Flatten(start_dim=1, end_dim=-1)
  (L_6_0): Linear(in_features=70848, out_features=512, bias=False)
  (L_6_1): BatchNorm1d(512, eps=1e-05, momentum=0.1, affine=True, track_running_stats=True)
  (L_6_2): Dropout(p=0.0, inplace=False)
  (ReLU_6_0): ReLU()
  (classification): Linear(in_features=512, out_features=10, bias=True)
)
2022-11-24 21:39:31.007 | INFO     | trainer:run:101 - Sequential(
  (C_0_0): Conv2d(1, 74, kernel_size=(3, 3), stride=(1, 1), padding=(1, 1))
  (C_0_2): Dropout(p=0.0, inplace=False)
  (ReLU_0_0): ReLU()
  (C_1_0): Conv2d(74, 118, kernel_size=(3, 3), stride=(1, 1), padding=(1, 1))
  (C_1_2): Dropout(p=0.0, inplace=False)
  (ReLU_1_0): ReLU()
  (P_2_0): MaxPool2d(kernel_size=5, stride=1, padding=0, dilation=1, ceil_mode=False)
  (P_2_1): BatchNorm2d(118, eps=1e-05, momentum=0.1, affine=True, track_running_stats=True)
  (P_2_2): Dropout(p=0.0, inplace=False)
  (C_3_0): Conv2d(118, 123, kernel_size=(1, 1), stride=(1, 1))
  (C_3_2): Dropout(p=0.1, inplace=False)
  (ReLU_3_0): ReLU()
  (C_4_0): Conv2d(123, 247, kernel_size=(1, 1), stride=(1, 1), bias=False)
  (C_4_1): BatchNorm2d(247, eps=1e-05, momentum=0.1, affine=True, track_running_stats=True)
  (C_4_2): Dropout(p=0.2, inplace=False)
  (ReLU_4_0): ReLU()
  (C_5_0): Conv2d(247, 123, kernel_size=(1, 1), stride=(1, 1), bias=False)
  (C_5_1): BatchNorm2d(123, eps=1e-05, momentum=0.1, affine=True, track_running_stats=True)
  (C_5_2): Dropout(p=0.0, inplace=False)
  (Tanh_5_0): Tanh()
  (flatten): Flatten(start_dim=1, end_dim=-1)
  (L_6_0): Linear(in_features=70848, out_features=512, bias=False)
  (L_6_1): BatchNorm1d(512, eps=1e-05, momentum=0.1, affine=True, track_running_stats=True)
  (L_6_2): Dropout(p=0.0, inplace=False)
  (ReLU_6_0): ReLU()
  (classification): Linear(in_features=512, out_features=10, bias=True)
)
2022-11-24 21:39:31.541 | INFO     | trainer:run:101 - Sequential(
  (C_0_0): Conv2d(1, 74, kernel_size=(3, 3), stride=(1, 1), padding=(1, 1))
  (C_0_2): Dropout(p=0.0, inplace=False)
  (ReLU_0_0): ReLU()
  (C_1_0): Conv2d(74, 118, kernel_size=(3, 3), stride=(1, 1), padding=(1, 1))
  (C_1_2): Dropout(p=0.0, inplace=False)
  (ReLU_1_0): ReLU()
  (P_2_0): MaxPool2d(kernel_size=2, stride=1, padding=0, dilation=1, ceil_mode=False)
  (P_2_2): Dropout(p=0.0, inplace=False)
  (C_3_0): Conv2d(118, 247, kernel_size=(1, 1), stride=(1, 1), bias=False)
  (C_3_1): BatchNorm2d(247, eps=1e-05, momentum=0.1, affine=True, track_running_stats=True)
  (C_3_2): Dropout(p=0.2, inplace=False)
  (ReLU_3_0): ReLU()
  (P_4_0): AvgPool2d(kernel_size=2, stride=1, padding=0)
  (P_4_1): BatchNorm2d(247, eps=1e-05, momentum=0.1, affine=True, track_running_stats=True)
  (P_4_2): Dropout(p=0.0, inplace=False)
  (flatten): Flatten(start_dim=1, end_dim=-1)
  (L_5_0): Linear(in_features=166972, out_features=512, bias=False)
  (L_5_1): BatchNorm1d(512, eps=1e-05, momentum=0.1, affine=True, track_running_stats=True)
  (L_5_2): Dropout(p=0.0, inplace=False)
  (ReLU_5_0): ReLU()
  (classification): Linear(in_features=512, out_features=10, bias=True)
)
2022-11-24 21:39:31.835 | INFO     | trainer:run:101 - Sequential(
  (C_0_0): Conv2d(1, 74, kernel_size=(3, 3), stride=(1, 1), padding=(1, 1))
  (C_0_2): Dropout(p=0.0, inplace=False)
  (ReLU_0_0): ReLU()
  (C_1_0): Conv2d(74, 118, kernel_size=(3, 3), stride=(1, 1), padding=(1, 1))
  (C_1_2): Dropout(p=0.0, inplace=False)
  (ReLU_1_0): ReLU()
  (P_2_0): MaxPool2d(kernel_size=5, stride=1, padding=0, dilation=1, ceil_mode=False)
  (P_2_1): BatchNorm2d(118, eps=1e-05, momentum=0.1, affine=True, track_running_stats=True)
  (P_2_2): Dropout(p=0.0, inplace=False)
  (C_3_0): Conv2d(118, 123, kernel_size=(1, 1), stride=(1, 1))
  (C_3_2): Dropout(p=0.1, inplace=False)
  (ReLU_3_0): ReLU()
  (C_4_0): Conv2d(123, 150, kernel_size=(5, 5), stride=(1, 1), padding=(2, 2), bias=False)
  (C_4_1): BatchNorm2d(150, eps=1e-05, momentum=0.1, affine=True, track_running_stats=True)
  (C_4_2): Dropout(p=0.0, inplace=False)
  (ReLU_4_0): ReLU()
  (P_5_0): AvgPool2d(kernel_size=2, stride=1, padding=0)
  (P_5_1): BatchNorm2d(150, eps=1e-05, momentum=0.1, affine=True, track_running_stats=True)
  (P_5_2): Dropout(p=0.0, inplace=False)
  (C_6_0): Conv2d(150, 175, kernel_size=(3, 3), stride=(1, 1), padding=(1, 1))
  (C_6_2): Dropout(p=0.0, inplace=False)
  (ReLU_6_0): ReLU()
  (P_7_0): AvgPool2d(kernel_size=2, stride=1, padding=0)
  (P_7_1): BatchNorm2d(175, eps=1e-05, momentum=0.1, affine=True, track_running_stats=True)
  (P_7_2): Dropout(p=0.3, inplace=False)
  (flatten): Flatten(start_dim=1, end_dim=-1)
  (L_8_0): Linear(in_features=84700, out_features=512, bias=False)
  (L_8_1): BatchNorm1d(512, eps=1e-05, momentum=0.1, affine=True, track_running_stats=True)
  (L_8_2): Dropout(p=0.0, inplace=False)
  (ReLU_8_0): ReLU()
  (L_9_0): Linear(in_features=512, out_features=512, bias=True)
  (L_9_2): Dropout(p=0.2, inplace=False)
  (Tanh_9_0): Tanh()
  (L_10_0): Linear(in_features=512, out_features=128, bias=False)
  (L_10_1): BatchNorm1d(128, eps=1e-05, momentum=0.1, affine=True, track_running_stats=True)
  (L_10_2): Dropout(p=0.1, inplace=False)
  (ReLU_10_0): ReLU()
  (L_11_0): Linear(in_features=128, out_features=256, bias=False)
  (L_11_1): BatchNorm1d(256, eps=1e-05, momentum=0.1, affine=True, track_running_stats=True)
  (L_11_2): Dropout(p=0.2, inplace=False)
  (ReLU_11_0): ReLU()
  (L_12_0): Linear(in_features=256, out_features=128, bias=False)
  (L_12_1): BatchNorm1d(128, eps=1e-05, momentum=0.1, affine=True, track_running_stats=True)
  (L_12_2): Dropout(p=0.1, inplace=False)
  (Tanh_12_0): Tanh()
  (L_13_0): Linear(in_features=128, out_features=512, bias=True)
  (L_13_2): Dropout(p=0.0, inplace=False)
  (Tanh_13_0): Tanh()
  (classification): Linear(in_features=512, out_features=10, bias=True)
)
2022-11-24 21:39:32.201 | INFO     | trainer:run:101 - Sequential(
  (C_0_0): Conv2d(1, 74, kernel_size=(3, 3), stride=(1, 1), padding=(1, 1))
  (C_0_2): Dropout(p=0.0, inplace=False)
  (ReLU_0_0): ReLU()
  (C_1_0): Conv2d(74, 118, kernel_size=(3, 3), stride=(1, 1), padding=(1, 1))
  (C_1_2): Dropout(p=0.0, inplace=False)
  (ReLU_1_0): ReLU()
  (P_2_0): MaxPool2d(kernel_size=2, stride=1, padding=0, dilation=1, ceil_mode=False)
  (P_2_2): Dropout(p=0.0, inplace=False)
  (C_3_0): Conv2d(118, 247, kernel_size=(1, 1), stride=(1, 1), bias=False)
  (C_3_1): BatchNorm2d(247, eps=1e-05, momentum=0.1, affine=True, track_running_stats=True)
  (C_3_2): Dropout(p=0.2, inplace=False)
  (ReLU_3_0): ReLU()
  (C_4_0): Conv2d(247, 150, kernel_size=(5, 5), stride=(1, 1), padding=(2, 2), bias=False)
  (C_4_1): BatchNorm2d(150, eps=1e-05, momentum=0.1, affine=True, track_running_stats=True)
  (C_4_2): Dropout(p=0.0, inplace=False)
  (ReLU_4_0): ReLU()
  (P_5_0): AvgPool2d(kernel_size=2, stride=1, padding=0)
  (P_5_1): BatchNorm2d(150, eps=1e-05, momentum=0.1, affine=True, track_running_stats=True)
  (P_5_2): Dropout(p=0.0, inplace=False)
  (C_6_0): Conv2d(150, 175, kernel_size=(3, 3), stride=(1, 1), padding=(1, 1))
  (C_6_2): Dropout(p=0.0, inplace=False)
  (ReLU_6_0): ReLU()
  (P_7_0): AvgPool2d(kernel_size=2, stride=1, padding=0)
  (P_7_1): BatchNorm2d(175, eps=1e-05, momentum=0.1, affine=True, track_running_stats=True)
  (P_7_2): Dropout(p=0.3, inplace=False)
  (flatten): Flatten(start_dim=1, end_dim=-1)
  (L_8_0): Linear(in_features=109375, out_features=512, bias=False)
  (L_8_1): BatchNorm1d(512, eps=1e-05, momentum=0.1, affine=True, track_running_stats=True)
  (L_8_2): Dropout(p=0.0, inplace=False)
  (ReLU_8_0): ReLU()
  (L_9_0): Linear(in_features=512, out_features=512, bias=True)
  (L_9_2): Dropout(p=0.2, inplace=False)
  (Tanh_9_0): Tanh()
  (L_10_0): Linear(in_features=512, out_features=128, bias=False)
  (L_10_1): BatchNorm1d(128, eps=1e-05, momentum=0.1, affine=True, track_running_stats=True)
  (L_10_2): Dropout(p=0.1, inplace=False)
  (ReLU_10_0): ReLU()
  (L_11_0): Linear(in_features=128, out_features=256, bias=False)
  (L_11_1): BatchNorm1d(256, eps=1e-05, momentum=0.1, affine=True, track_running_stats=True)
  (L_11_2): Dropout(p=0.2, inplace=False)
  (ReLU_11_0): ReLU()
  (L_12_0): Linear(in_features=256, out_features=128, bias=False)
  (L_12_1): BatchNorm1d(128, eps=1e-05, momentum=0.1, affine=True, track_running_stats=True)
  (L_12_2): Dropout(p=0.1, inplace=False)
  (Tanh_12_0): Tanh()
  (L_13_0): Linear(in_features=128, out_features=512, bias=True)
  (L_13_2): Dropout(p=0.0, inplace=False)
  (Tanh_13_0): Tanh()
  (classification): Linear(in_features=512, out_features=10, bias=True)
)
2022-11-24 21:39:32.485 | INFO     | trainer:run:101 - Sequential(
  (C_0_0): Conv2d(1, 74, kernel_size=(3, 3), stride=(1, 1), padding=(1, 1))
  (C_0_2): Dropout(p=0.0, inplace=False)
  (ReLU_0_0): ReLU()
  (C_1_0): Conv2d(74, 118, kernel_size=(3, 3), stride=(1, 1), padding=(1, 1))
  (C_1_2): Dropout(p=0.0, inplace=False)
  (ReLU_1_0): ReLU()
  (P_2_0): MaxPool2d(kernel_size=2, stride=1, padding=0, dilation=1, ceil_mode=False)
  (P_2_2): Dropout(p=0.0, inplace=False)
  (flatten): Flatten(start_dim=1, end_dim=-1)
  (L_3_0): Linear(in_features=86022, out_features=512, bias=False)
  (L_3_1): BatchNorm1d(512, eps=1e-05, momentum=0.1, affine=True, track_running_stats=True)
  (L_3_2): Dropout(p=0.0, inplace=False)
  (ReLU_3_0): ReLU()
  (classification): Linear(in_features=512, out_features=10, bias=True)
)
2022-11-24 21:39:32.787 | INFO     | trainer:run:101 - Sequential(
  (C_0_0): Conv2d(1, 74, kernel_size=(3, 3), stride=(1, 1), padding=(1, 1))
  (C_0_2): Dropout(p=0.0, inplace=False)
  (ReLU_0_0): ReLU()
  (C_1_0): Conv2d(74, 118, kernel_size=(3, 3), stride=(1, 1), padding=(1, 1))
  (C_1_2): Dropout(p=0.0, inplace=False)
  (ReLU_1_0): ReLU()
  (flatten): Flatten(start_dim=1, end_dim=-1)
  (L_2_0): Linear(in_features=92512, out_features=512, bias=False)
  (L_2_1): BatchNorm1d(512, eps=1e-05, momentum=0.1, affine=True, track_running_stats=True)
  (L_2_2): Dropout(p=0.0, inplace=False)
  (ReLU_2_0): ReLU()
  (classification): Linear(in_features=512, out_features=10, bias=True)
)
2022-11-24 21:39:33.184 | INFO     | trainer:run:101 - Sequential(
  (C_0_0): Conv2d(1, 74, kernel_size=(3, 3), stride=(1, 1), padding=(1, 1))
  (C_0_2): Dropout(p=0.0, inplace=False)
  (ReLU_0_0): ReLU()
  (C_1_0): Conv2d(74, 118, kernel_size=(3, 3), stride=(1, 1), padding=(1, 1))
  (C_1_2): Dropout(p=0.0, inplace=False)
  (ReLU_1_0): ReLU()
  (C_2_0): Conv2d(118, 189, kernel_size=(5, 5), stride=(1, 1), padding=(2, 2))
  (C_2_2): Dropout(p=0.1, inplace=False)
  (Sigmoid_2_0): Sigmoid()
  (P_3_0): MaxPool2d(kernel_size=5, stride=1, padding=0, dilation=1, ceil_mode=False)
  (P_3_1): BatchNorm2d(189, eps=1e-05, momentum=0.1, affine=True, track_running_stats=True)
  (P_3_2): Dropout(p=0.0, inplace=False)
  (C_4_0): Conv2d(189, 253, kernel_size=(3, 3), stride=(1, 1), padding=(1, 1), bias=False)
  (C_4_1): BatchNorm2d(253, eps=1e-05, momentum=0.1, affine=True, track_running_stats=True)
  (C_4_2): Dropout(p=0.2, inplace=False)
  (Sigmoid_4_0): Sigmoid()
  (P_5_0): AvgPool2d(kernel_size=2, stride=1, padding=0)
  (P_5_1): BatchNorm2d(253, eps=1e-05, momentum=0.1, affine=True, track_running_stats=True)
  (P_5_2): Dropout(p=0.0, inplace=False)
  (C_6_0): Conv2d(253, 247, kernel_size=(1, 1), stride=(1, 1), bias=False)
  (C_6_1): BatchNorm2d(247, eps=1e-05, momentum=0.1, affine=True, track_running_stats=True)
  (C_6_2): Dropout(p=0.2, inplace=False)
  (ReLU_6_0): ReLU()
  (C_7_0): Conv2d(247, 247, kernel_size=(1, 1), stride=(1, 1), bias=False)
  (C_7_1): BatchNorm2d(247, eps=1e-05, momentum=0.1, affine=True, track_running_stats=True)
  (C_7_2): Dropout(p=0.2, inplace=False)
  (ReLU_7_0): ReLU()
  (P_8_0): AvgPool2d(kernel_size=2, stride=1, padding=0)
  (P_8_1): BatchNorm2d(247, eps=1e-05, momentum=0.1, affine=True, track_running_stats=True)
  (P_8_2): Dropout(p=0.0, inplace=False)
  (flatten): Flatten(start_dim=1, end_dim=-1)
  (L_9_0): Linear(in_features=119548, out_features=512, bias=False)
  (L_9_1): BatchNorm1d(512, eps=1e-05, momentum=0.1, affine=True, track_running_stats=True)
  (L_9_2): Dropout(p=0.0, inplace=False)
  (ReLU_9_0): ReLU()
  (L_10_0): Linear(in_features=512, out_features=512, bias=True)
  (L_10_2): Dropout(p=0.2, inplace=False)
  (Tanh_10_0): Tanh()
  (L_11_0): Linear(in_features=512, out_features=128, bias=False)
  (L_11_1): BatchNorm1d(128, eps=1e-05, momentum=0.1, affine=True, track_running_stats=True)
  (L_11_2): Dropout(p=0.1, inplace=False)
  (ReLU_11_0): ReLU()
  (L_12_0): Linear(in_features=128, out_features=512, bias=True)
  (L_12_2): Dropout(p=0.0, inplace=False)
  (Tanh_12_0): Tanh()
  (classification): Linear(in_features=512, out_features=10, bias=True)
)
2022-11-24 21:39:33.423 | INFO     | trainer:run:101 - Sequential(
  (C_0_0): Conv2d(1, 74, kernel_size=(3, 3), stride=(1, 1), padding=(1, 1))
  (C_0_2): Dropout(p=0.0, inplace=False)
  (ReLU_0_0): ReLU()
  (C_1_0): Conv2d(74, 118, kernel_size=(3, 3), stride=(1, 1), padding=(1, 1))
  (C_1_2): Dropout(p=0.0, inplace=False)
  (ReLU_1_0): ReLU()
  (C_2_0): Conv2d(118, 247, kernel_size=(1, 1), stride=(1, 1), bias=False)
  (C_2_1): BatchNorm2d(247, eps=1e-05, momentum=0.1, affine=True, track_running_stats=True)
  (C_2_2): Dropout(p=0.2, inplace=False)
  (ReLU_2_0): ReLU()
  (P_3_0): MaxPool2d(kernel_size=5, stride=1, padding=0, dilation=1, ceil_mode=False)
  (P_3_1): BatchNorm2d(247, eps=1e-05, momentum=0.1, affine=True, track_running_stats=True)
  (P_3_2): Dropout(p=0.0, inplace=False)
  (C_4_0): Conv2d(247, 123, kernel_size=(1, 1), stride=(1, 1), bias=False)
  (C_4_1): BatchNorm2d(123, eps=1e-05, momentum=0.1, affine=True, track_running_stats=True)
  (C_4_2): Dropout(p=0.0, inplace=False)
  (Tanh_4_0): Tanh()
  (C_5_0): Conv2d(123, 123, kernel_size=(1, 1), stride=(1, 1), bias=False)
  (C_5_1): BatchNorm2d(123, eps=1e-05, momentum=0.1, affine=True, track_running_stats=True)
  (C_5_2): Dropout(p=0.0, inplace=False)
  (Tanh_5_0): Tanh()
  (flatten): Flatten(start_dim=1, end_dim=-1)
  (L_6_0): Linear(in_features=70848, out_features=512, bias=False)
  (L_6_1): BatchNorm1d(512, eps=1e-05, momentum=0.1, affine=True, track_running_stats=True)
  (L_6_2): Dropout(p=0.0, inplace=False)
  (ReLU_6_0): ReLU()
  (classification): Linear(in_features=512, out_features=10, bias=True)
)
2022-11-24 21:39:33.840 | INFO     | trainer:run:101 - Sequential(
  (C_0_0): Conv2d(1, 74, kernel_size=(3, 3), stride=(1, 1), padding=(1, 1))
  (C_0_2): Dropout(p=0.0, inplace=False)
  (ReLU_0_0): ReLU()
  (C_1_0): Conv2d(74, 118, kernel_size=(3, 3), stride=(1, 1), padding=(1, 1))
  (C_1_2): Dropout(p=0.0, inplace=False)
  (ReLU_1_0): ReLU()
  (P_2_0): MaxPool2d(kernel_size=2, stride=1, padding=0, dilation=1, ceil_mode=False)
  (P_2_2): Dropout(p=0.0, inplace=False)
  (C_3_0): Conv2d(118, 247, kernel_size=(1, 1), stride=(1, 1), bias=False)
  (C_3_1): BatchNorm2d(247, eps=1e-05, momentum=0.1, affine=True, track_running_stats=True)
  (C_3_2): Dropout(p=0.2, inplace=False)
  (ReLU_3_0): ReLU()
  (C_4_0): Conv2d(247, 150, kernel_size=(5, 5), stride=(1, 1), padding=(2, 2), bias=False)
  (C_4_1): BatchNorm2d(150, eps=1e-05, momentum=0.1, affine=True, track_running_stats=True)
  (C_4_2): Dropout(p=0.0, inplace=False)
  (ReLU_4_0): ReLU()
  (C_5_0): Conv2d(150, 175, kernel_size=(3, 3), stride=(1, 1), padding=(1, 1))
  (C_5_2): Dropout(p=0.0, inplace=False)
  (ReLU_5_0): ReLU()
  (flatten): Flatten(start_dim=1, end_dim=-1)
  (L_6_0): Linear(in_features=127575, out_features=512, bias=False)
  (L_6_1): BatchNorm1d(512, eps=1e-05, momentum=0.1, affine=True, track_running_stats=True)
  (L_6_2): Dropout(p=0.0, inplace=False)
  (Sigmoid_6_0): Sigmoid()
  (classification): Linear(in_features=512, out_features=10, bias=True)
)
2022-11-24 21:39:34.145 | INFO     | trainer:run:101 - Sequential(
  (C_0_0): Conv2d(1, 74, kernel_size=(3, 3), stride=(1, 1), padding=(1, 1))
  (C_0_2): Dropout(p=0.0, inplace=False)
  (ReLU_0_0): ReLU()
  (C_1_0): Conv2d(74, 118, kernel_size=(3, 3), stride=(1, 1), padding=(1, 1))
  (C_1_2): Dropout(p=0.0, inplace=False)
  (ReLU_1_0): ReLU()
  (flatten): Flatten(start_dim=1, end_dim=-1)
  (L_2_0): Linear(in_features=92512, out_features=512, bias=False)
  (L_2_1): BatchNorm1d(512, eps=1e-05, momentum=0.1, affine=True, track_running_stats=True)
  (L_2_2): Dropout(p=0.0, inplace=False)
  (ReLU_2_0): ReLU()
  (classification): Linear(in_features=512, out_features=10, bias=True)
)
2022-11-24 21:39:34.448 | INFO     | trainer:run:101 - Sequential(
  (C_0_0): Conv2d(1, 74, kernel_size=(3, 3), stride=(1, 1), padding=(1, 1))
  (C_0_2): Dropout(p=0.0, inplace=False)
  (ReLU_0_0): ReLU()
  (C_1_0): Conv2d(74, 118, kernel_size=(3, 3), stride=(1, 1), padding=(1, 1))
  (C_1_2): Dropout(p=0.0, inplace=False)
  (ReLU_1_0): ReLU()
  (flatten): Flatten(start_dim=1, end_dim=-1)
  (L_2_0): Linear(in_features=92512, out_features=512, bias=False)
  (L_2_1): BatchNorm1d(512, eps=1e-05, momentum=0.1, affine=True, track_running_stats=True)
  (L_2_2): Dropout(p=0.0, inplace=False)
  (ReLU_2_0): ReLU()
  (classification): Linear(in_features=512, out_features=10, bias=True)
)
2022-11-24 21:39:34.975 | INFO     | trainer:run:101 - Sequential(
  (C_0_0): Conv2d(1, 74, kernel_size=(3, 3), stride=(1, 1), padding=(1, 1))
  (C_0_2): Dropout(p=0.0, inplace=False)
  (ReLU_0_0): ReLU()
  (C_1_0): Conv2d(74, 209, kernel_size=(3, 3), stride=(1, 1), padding=(1, 1), bias=False)
  (C_1_1): BatchNorm2d(209, eps=1e-05, momentum=0.1, affine=True, track_running_stats=True)
  (C_1_2): Dropout(p=0.0, inplace=False)
  (ReLU_1_0): ReLU()
  (flatten): Flatten(start_dim=1, end_dim=-1)
  (L_2_0): Linear(in_features=163856, out_features=512, bias=False)
  (L_2_1): BatchNorm1d(512, eps=1e-05, momentum=0.1, affine=True, track_running_stats=True)
  (L_2_2): Dropout(p=0.0, inplace=False)
  (ReLU_2_0): ReLU()
  (classification): Linear(in_features=512, out_features=10, bias=True)
)
2022-11-24 21:39:35.486 | INFO     | trainer:run:101 - Sequential(
  (C_0_0): Conv2d(1, 74, kernel_size=(3, 3), stride=(1, 1), padding=(1, 1))
  (C_0_2): Dropout(p=0.0, inplace=False)
  (ReLU_0_0): ReLU()
  (C_1_0): Conv2d(74, 118, kernel_size=(3, 3), stride=(1, 1), padding=(1, 1))
  (C_1_2): Dropout(p=0.0, inplace=False)
  (ReLU_1_0): ReLU()
  (C_2_0): Conv2d(118, 118, kernel_size=(3, 3), stride=(1, 1), padding=(1, 1))
  (C_2_2): Dropout(p=0.0, inplace=False)
  (ReLU_2_0): ReLU()
  (P_3_0): MaxPool2d(kernel_size=2, stride=1, padding=0, dilation=1, ceil_mode=False)
  (P_3_2): Dropout(p=0.0, inplace=False)
  (C_4_0): Conv2d(118, 253, kernel_size=(3, 3), stride=(1, 1), padding=(1, 1), bias=False)
  (C_4_1): BatchNorm2d(253, eps=1e-05, momentum=0.1, affine=True, track_running_stats=True)
  (C_4_2): Dropout(p=0.2, inplace=False)
  (Sigmoid_4_0): Sigmoid()
  (P_5_0): AvgPool2d(kernel_size=2, stride=1, padding=0)
  (P_5_1): BatchNorm2d(253, eps=1e-05, momentum=0.1, affine=True, track_running_stats=True)
  (P_5_2): Dropout(p=0.0, inplace=False)
  (C_6_0): Conv2d(253, 247, kernel_size=(1, 1), stride=(1, 1), bias=False)
  (C_6_1): BatchNorm2d(247, eps=1e-05, momentum=0.1, affine=True, track_running_stats=True)
  (C_6_2): Dropout(p=0.2, inplace=False)
  (ReLU_6_0): ReLU()
  (C_7_0): Conv2d(247, 247, kernel_size=(1, 1), stride=(1, 1), bias=False)
  (C_7_1): BatchNorm2d(247, eps=1e-05, momentum=0.1, affine=True, track_running_stats=True)
  (C_7_2): Dropout(p=0.2, inplace=False)
  (ReLU_7_0): ReLU()
  (P_8_0): AvgPool2d(kernel_size=2, stride=1, padding=0)
  (P_8_1): BatchNorm2d(247, eps=1e-05, momentum=0.1, affine=True, track_running_stats=True)
  (P_8_2): Dropout(p=0.0, inplace=False)
  (flatten): Flatten(start_dim=1, end_dim=-1)
  (L_9_0): Linear(in_features=154375, out_features=512, bias=False)
  (L_9_1): BatchNorm1d(512, eps=1e-05, momentum=0.1, affine=True, track_running_stats=True)
  (L_9_2): Dropout(p=0.0, inplace=False)
  (ReLU_9_0): ReLU()
  (L_10_0): Linear(in_features=512, out_features=512, bias=True)
  (L_10_2): Dropout(p=0.2, inplace=False)
  (Tanh_10_0): Tanh()
  (L_11_0): Linear(in_features=512, out_features=128, bias=False)
  (L_11_1): BatchNorm1d(128, eps=1e-05, momentum=0.1, affine=True, track_running_stats=True)
  (L_11_2): Dropout(p=0.1, inplace=False)
  (ReLU_11_0): ReLU()
  (L_12_0): Linear(in_features=128, out_features=512, bias=True)
  (L_12_2): Dropout(p=0.0, inplace=False)
  (Tanh_12_0): Tanh()
  (classification): Linear(in_features=512, out_features=10, bias=True)
)
2022-11-24 21:39:35.796 | INFO     | trainer:run:101 - Sequential(
  (C_0_0): Conv2d(1, 74, kernel_size=(3, 3), stride=(1, 1), padding=(1, 1))
  (C_0_2): Dropout(p=0.0, inplace=False)
  (ReLU_0_0): ReLU()
  (C_1_0): Conv2d(74, 118, kernel_size=(3, 3), stride=(1, 1), padding=(1, 1))
  (C_1_2): Dropout(p=0.0, inplace=False)
  (ReLU_1_0): ReLU()
  (flatten): Flatten(start_dim=1, end_dim=-1)
  (L_2_0): Linear(in_features=92512, out_features=512, bias=False)
  (L_2_1): BatchNorm1d(512, eps=1e-05, momentum=0.1, affine=True, track_running_stats=True)
  (L_2_2): Dropout(p=0.0, inplace=False)
  (ReLU_2_0): ReLU()
  (L_3_0): Linear(in_features=512, out_features=128, bias=False)
  (L_3_1): BatchNorm1d(128, eps=1e-05, momentum=0.1, affine=True, track_running_stats=True)
  (L_3_2): Dropout(p=0.0, inplace=False)
  (ReLU_3_0): ReLU()
  (classification): Linear(in_features=128, out_features=10, bias=True)
)
2022-11-24 21:39:36.055 | INFO     | trainer:run:101 - Sequential(
  (C_0_0): Conv2d(1, 74, kernel_size=(3, 3), stride=(1, 1), padding=(1, 1))
  (C_0_2): Dropout(p=0.0, inplace=False)
  (ReLU_0_0): ReLU()
  (C_1_0): Conv2d(74, 118, kernel_size=(3, 3), stride=(1, 1), padding=(1, 1))
  (C_1_2): Dropout(p=0.0, inplace=False)
  (ReLU_1_0): ReLU()
  (C_2_0): Conv2d(118, 74, kernel_size=(3, 3), stride=(1, 1), padding=(1, 1))
  (C_2_2): Dropout(p=0.0, inplace=False)
  (ReLU_2_0): ReLU()
  (P_3_0): MaxPool2d(kernel_size=2, stride=1, padding=0, dilation=1, ceil_mode=False)
  (P_3_2): Dropout(p=0.0, inplace=False)
  (C_4_0): Conv2d(74, 123, kernel_size=(1, 1), stride=(1, 1))
  (C_4_2): Dropout(p=0.1, inplace=False)
  (ReLU_4_0): ReLU()
  (P_5_0): AvgPool2d(kernel_size=2, stride=1, padding=0)
  (P_5_1): BatchNorm2d(123, eps=1e-05, momentum=0.1, affine=True, track_running_stats=True)
  (P_5_2): Dropout(p=0.0, inplace=False)
  (C_6_0): Conv2d(123, 247, kernel_size=(1, 1), stride=(1, 1), bias=False)
  (C_6_1): BatchNorm2d(247, eps=1e-05, momentum=0.1, affine=True, track_running_stats=True)
  (C_6_2): Dropout(p=0.2, inplace=False)
  (ReLU_6_0): ReLU()
  (C_7_0): Conv2d(247, 123, kernel_size=(1, 1), stride=(1, 1), bias=False)
  (C_7_1): BatchNorm2d(123, eps=1e-05, momentum=0.1, affine=True, track_running_stats=True)
  (C_7_2): Dropout(p=0.0, inplace=False)
  (Tanh_7_0): Tanh()
  (P_8_0): AvgPool2d(kernel_size=2, stride=1, padding=0)
  (P_8_1): BatchNorm2d(123, eps=1e-05, momentum=0.1, affine=True, track_running_stats=True)
  (P_8_2): Dropout(p=0.0, inplace=False)
  (flatten): Flatten(start_dim=1, end_dim=-1)
  (L_9_0): Linear(in_features=76875, out_features=512, bias=False)
  (L_9_1): BatchNorm1d(512, eps=1e-05, momentum=0.1, affine=True, track_running_stats=True)
  (L_9_2): Dropout(p=0.0, inplace=False)
  (ReLU_9_0): ReLU()
  (L_10_0): Linear(in_features=512, out_features=256, bias=True)
  (L_10_2): Dropout(p=0.4, inplace=False)
  (ReLU_10_0): ReLU()
  (L_11_0): Linear(in_features=256, out_features=512, bias=True)
  (L_11_2): Dropout(p=0.2, inplace=False)
  (Tanh_11_0): Tanh()
  (L_12_0): Linear(in_features=512, out_features=128, bias=False)
  (L_12_1): BatchNorm1d(128, eps=1e-05, momentum=0.1, affine=True, track_running_stats=True)
  (L_12_2): Dropout(p=0.1, inplace=False)
  (ReLU_12_0): ReLU()
  (L_13_0): Linear(in_features=128, out_features=512, bias=True)
  (L_13_2): Dropout(p=0.0, inplace=False)
  (Tanh_13_0): Tanh()
  (classification): Linear(in_features=512, out_features=10, bias=True)
)
2022-11-24 21:39:36.252 | INFO     | trainer:run:101 - Sequential(
  (C_0_0): Conv2d(1, 74, kernel_size=(3, 3), stride=(1, 1), padding=(1, 1))
  (C_0_2): Dropout(p=0.0, inplace=False)
  (ReLU_0_0): ReLU()
  (C_1_0): Conv2d(74, 118, kernel_size=(3, 3), stride=(1, 1), padding=(1, 1))
  (C_1_2): Dropout(p=0.0, inplace=False)
  (ReLU_1_0): ReLU()
  (P_2_0): MaxPool2d(kernel_size=2, stride=1, padding=0, dilation=1, ceil_mode=False)
  (P_2_2): Dropout(p=0.0, inplace=False)
  (C_3_0): Conv2d(118, 86, kernel_size=(5, 5), stride=(1, 1), padding=(2, 2), bias=False)
  (C_3_1): BatchNorm2d(86, eps=1e-05, momentum=0.1, affine=True, track_running_stats=True)
  (C_3_2): Dropout(p=0.2, inplace=False)
  (ReLU_3_0): ReLU()
  (P_4_0): AvgPool2d(kernel_size=2, stride=1, padding=0)
  (P_4_1): BatchNorm2d(86, eps=1e-05, momentum=0.1, affine=True, track_running_stats=True)
  (P_4_2): Dropout(p=0.5, inplace=False)
  (flatten): Flatten(start_dim=1, end_dim=-1)
  (L_5_0): Linear(in_features=58136, out_features=512, bias=False)
  (L_5_1): BatchNorm1d(512, eps=1e-05, momentum=0.1, affine=True, track_running_stats=True)
  (L_5_2): Dropout(p=0.0, inplace=False)
  (ReLU_5_0): ReLU()
  (classification): Linear(in_features=512, out_features=10, bias=True)
)
2022-11-24 21:39:36.345 | INFO     | trainer:run:101 - Sequential(
  (C_0_0): Conv2d(1, 74, kernel_size=(3, 3), stride=(1, 1), padding=(1, 1))
  (C_0_2): Dropout(p=0.0, inplace=False)
  (ReLU_0_0): ReLU()
  (C_1_0): Conv2d(74, 37, kernel_size=(1, 1), stride=(1, 1), bias=False)
  (C_1_1): BatchNorm2d(37, eps=1e-05, momentum=0.1, affine=True, track_running_stats=True)
  (C_1_2): Dropout(p=0.0, inplace=False)
  (Tanh_1_0): Tanh()
  (P_2_0): MaxPool2d(kernel_size=2, stride=1, padding=0, dilation=1, ceil_mode=False)
  (P_2_2): Dropout(p=0.0, inplace=False)
  (flatten): Flatten(start_dim=1, end_dim=-1)
  (L_3_0): Linear(in_features=26973, out_features=512, bias=False)
  (L_3_1): BatchNorm1d(512, eps=1e-05, momentum=0.1, affine=True, track_running_stats=True)
  (L_3_2): Dropout(p=0.0, inplace=False)
  (ReLU_3_0): ReLU()
  (classification): Linear(in_features=512, out_features=10, bias=True)
)
2022-11-24 21:39:36.840 | INFO     | trainer:run:101 - Sequential(
  (C_0_0): Conv2d(1, 74, kernel_size=(3, 3), stride=(1, 1), padding=(1, 1))
  (C_0_2): Dropout(p=0.0, inplace=False)
  (ReLU_0_0): ReLU()
  (C_1_0): Conv2d(74, 118, kernel_size=(3, 3), stride=(1, 1), padding=(1, 1))
  (C_1_2): Dropout(p=0.0, inplace=False)
  (ReLU_1_0): ReLU()
  (C_2_0): Conv2d(118, 253, kernel_size=(3, 3), stride=(1, 1), padding=(1, 1), bias=False)
  (C_2_1): BatchNorm2d(253, eps=1e-05, momentum=0.1, affine=True, track_running_stats=True)
  (C_2_2): Dropout(p=0.2, inplace=False)
  (Sigmoid_2_0): Sigmoid()
  (P_3_0): MaxPool2d(kernel_size=2, stride=1, padding=0, dilation=1, ceil_mode=False)
  (P_3_2): Dropout(p=0.0, inplace=False)
  (C_4_0): Conv2d(253, 247, kernel_size=(1, 1), stride=(1, 1), bias=False)
  (C_4_1): BatchNorm2d(247, eps=1e-05, momentum=0.1, affine=True, track_running_stats=True)
  (C_4_2): Dropout(p=0.2, inplace=False)
  (ReLU_4_0): ReLU()
  (P_5_0): AvgPool2d(kernel_size=2, stride=1, padding=0)
  (P_5_1): BatchNorm2d(247, eps=1e-05, momentum=0.1, affine=True, track_running_stats=True)
  (P_5_2): Dropout(p=0.0, inplace=False)
  (C_6_0): Conv2d(247, 123, kernel_size=(1, 1), stride=(1, 1), bias=False)
  (C_6_1): BatchNorm2d(123, eps=1e-05, momentum=0.1, affine=True, track_running_stats=True)
  (C_6_2): Dropout(p=0.0, inplace=False)
  (Tanh_6_0): Tanh()
  (C_7_0): Conv2d(123, 247, kernel_size=(1, 1), stride=(1, 1), bias=False)
  (C_7_1): BatchNorm2d(247, eps=1e-05, momentum=0.1, affine=True, track_running_stats=True)
  (C_7_2): Dropout(p=0.2, inplace=False)
  (ReLU_7_0): ReLU()
  (P_8_0): AvgPool2d(kernel_size=2, stride=1, padding=0)
  (P_8_1): BatchNorm2d(247, eps=1e-05, momentum=0.1, affine=True, track_running_stats=True)
  (P_8_2): Dropout(p=0.0, inplace=False)
  (flatten): Flatten(start_dim=1, end_dim=-1)
  (L_9_0): Linear(in_features=154375, out_features=512, bias=False)
  (L_9_1): BatchNorm1d(512, eps=1e-05, momentum=0.1, affine=True, track_running_stats=True)
  (L_9_2): Dropout(p=0.0, inplace=False)
  (ReLU_9_0): ReLU()
  (L_10_0): Linear(in_features=512, out_features=128, bias=False)
  (L_10_1): BatchNorm1d(128, eps=1e-05, momentum=0.1, affine=True, track_running_stats=True)
  (L_10_2): Dropout(p=0.1, inplace=False)
  (ReLU_10_0): ReLU()
  (L_11_0): Linear(in_features=128, out_features=512, bias=True)
  (L_11_2): Dropout(p=0.0, inplace=False)
  (Tanh_11_0): Tanh()
  (classification): Linear(in_features=512, out_features=10, bias=True)
)
2022-11-24 21:39:37.110 | INFO     | trainer:run:101 - Sequential(
  (C_0_0): Conv2d(1, 74, kernel_size=(3, 3), stride=(1, 1), padding=(1, 1))
  (C_0_2): Dropout(p=0.0, inplace=False)
  (ReLU_0_0): ReLU()
  (C_1_0): Conv2d(74, 118, kernel_size=(3, 3), stride=(1, 1), padding=(1, 1))
  (C_1_2): Dropout(p=0.0, inplace=False)
  (ReLU_1_0): ReLU()
  (P_2_0): MaxPool2d(kernel_size=2, stride=1, padding=0, dilation=1, ceil_mode=False)
  (P_2_2): Dropout(p=0.0, inplace=False)
  (C_3_0): Conv2d(118, 247, kernel_size=(1, 1), stride=(1, 1), bias=False)
  (C_3_1): BatchNorm2d(247, eps=1e-05, momentum=0.1, affine=True, track_running_stats=True)
  (C_3_2): Dropout(p=0.2, inplace=False)
  (ReLU_3_0): ReLU()
  (C_4_0): Conv2d(247, 150, kernel_size=(5, 5), stride=(1, 1), padding=(2, 2), bias=False)
  (C_4_1): BatchNorm2d(150, eps=1e-05, momentum=0.1, affine=True, track_running_stats=True)
  (C_4_2): Dropout(p=0.0, inplace=False)
  (ReLU_4_0): ReLU()
  (P_5_0): AvgPool2d(kernel_size=2, stride=1, padding=0)
  (P_5_1): BatchNorm2d(150, eps=1e-05, momentum=0.1, affine=True, track_running_stats=True)
  (P_5_2): Dropout(p=0.0, inplace=False)
  (C_6_0): Conv2d(150, 175, kernel_size=(3, 3), stride=(1, 1), padding=(1, 1))
  (C_6_2): Dropout(p=0.0, inplace=False)
  (ReLU_6_0): ReLU()
  (C_7_0): Conv2d(175, 143, kernel_size=(3, 3), stride=(1, 1), padding=(1, 1), bias=False)
  (C_7_1): BatchNorm2d(143, eps=1e-05, momentum=0.1, affine=True, track_running_stats=True)
  (C_7_2): Dropout(p=0.4, inplace=False)
  (ReLU_7_0): ReLU()
  (P_8_0): AvgPool2d(kernel_size=3, stride=1, padding=0)
  (P_8_1): BatchNorm2d(143, eps=1e-05, momentum=0.1, affine=True, track_running_stats=True)
  (P_8_2): Dropout(p=0.2, inplace=False)
  (P_9_0): AvgPool2d(kernel_size=2, stride=1, padding=0)
  (P_9_1): BatchNorm2d(143, eps=1e-05, momentum=0.1, affine=True, track_running_stats=True)
  (P_9_2): Dropout(p=0.3, inplace=False)
  (flatten): Flatten(start_dim=1, end_dim=-1)
  (L_10_0): Linear(in_features=75647, out_features=512, bias=False)
  (L_10_1): BatchNorm1d(512, eps=1e-05, momentum=0.1, affine=True, track_running_stats=True)
  (L_10_2): Dropout(p=0.0, inplace=False)
  (Sigmoid_10_0): Sigmoid()
  (L_11_0): Linear(in_features=512, out_features=512, bias=True)
  (L_11_2): Dropout(p=0.2, inplace=False)
  (Tanh_11_0): Tanh()
  (L_12_0): Linear(in_features=512, out_features=128, bias=False)
  (L_12_1): BatchNorm1d(128, eps=1e-05, momentum=0.1, affine=True, track_running_stats=True)
  (L_12_2): Dropout(p=0.1, inplace=False)
  (ReLU_12_0): ReLU()
  (L_13_0): Linear(in_features=128, out_features=256, bias=False)
  (L_13_1): BatchNorm1d(256, eps=1e-05, momentum=0.1, affine=True, track_running_stats=True)
  (L_13_2): Dropout(p=0.2, inplace=False)
  (ReLU_13_0): ReLU()
  (L_14_0): Linear(in_features=256, out_features=128, bias=False)
  (L_14_1): BatchNorm1d(128, eps=1e-05, momentum=0.1, affine=True, track_running_stats=True)
  (L_14_2): Dropout(p=0.1, inplace=False)
  (Tanh_14_0): Tanh()
  (L_15_0): Linear(in_features=128, out_features=512, bias=True)
  (L_15_2): Dropout(p=0.0, inplace=False)
  (Tanh_15_0): Tanh()
  (classification): Linear(in_features=512, out_features=10, bias=True)
)
2022-11-24 21:39:37.391 | INFO     | trainer:run:101 - Sequential(
  (C_0_0): Conv2d(1, 74, kernel_size=(3, 3), stride=(1, 1), padding=(1, 1))
  (C_0_2): Dropout(p=0.0, inplace=False)
  (ReLU_0_0): ReLU()
  (C_1_0): Conv2d(74, 118, kernel_size=(3, 3), stride=(1, 1), padding=(1, 1))
  (C_1_2): Dropout(p=0.0, inplace=False)
  (ReLU_1_0): ReLU()
  (C_2_0): Conv2d(118, 118, kernel_size=(3, 3), stride=(1, 1), padding=(1, 1))
  (C_2_2): Dropout(p=0.0, inplace=False)
  (ReLU_2_0): ReLU()
  (P_3_0): MaxPool2d(kernel_size=2, stride=1, padding=0, dilation=1, ceil_mode=False)
  (P_3_2): Dropout(p=0.0, inplace=False)
  (C_4_0): Conv2d(118, 253, kernel_size=(3, 3), stride=(1, 1), padding=(1, 1), bias=False)
  (C_4_1): BatchNorm2d(253, eps=1e-05, momentum=0.1, affine=True, track_running_stats=True)
  (C_4_2): Dropout(p=0.2, inplace=False)
  (Sigmoid_4_0): Sigmoid()
  (P_5_0): AvgPool2d(kernel_size=2, stride=1, padding=0)
  (P_5_1): BatchNorm2d(253, eps=1e-05, momentum=0.1, affine=True, track_running_stats=True)
  (P_5_2): Dropout(p=0.0, inplace=False)
  (C_6_0): Conv2d(253, 247, kernel_size=(1, 1), stride=(1, 1), bias=False)
  (C_6_1): BatchNorm2d(247, eps=1e-05, momentum=0.1, affine=True, track_running_stats=True)
  (C_6_2): Dropout(p=0.2, inplace=False)
  (ReLU_6_0): ReLU()
  (C_7_0): Conv2d(247, 134, kernel_size=(3, 3), stride=(1, 1), padding=(1, 1))
  (C_7_2): Dropout(p=0.3, inplace=False)
  (ReLU_7_0): ReLU()
  (P_8_0): AvgPool2d(kernel_size=2, stride=1, padding=0)
  (P_8_1): BatchNorm2d(134, eps=1e-05, momentum=0.1, affine=True, track_running_stats=True)
  (P_8_2): Dropout(p=0.0, inplace=False)
  (flatten): Flatten(start_dim=1, end_dim=-1)
  (L_9_0): Linear(in_features=83750, out_features=512, bias=False)
  (L_9_1): BatchNorm1d(512, eps=1e-05, momentum=0.1, affine=True, track_running_stats=True)
  (L_9_2): Dropout(p=0.0, inplace=False)
  (ReLU_9_0): ReLU()
  (L_10_0): Linear(in_features=512, out_features=512, bias=True)
  (L_10_2): Dropout(p=0.2, inplace=False)
  (Tanh_10_0): Tanh()
  (L_11_0): Linear(in_features=512, out_features=128, bias=False)
  (L_11_1): BatchNorm1d(128, eps=1e-05, momentum=0.1, affine=True, track_running_stats=True)
  (L_11_2): Dropout(p=0.1, inplace=False)
  (ReLU_11_0): ReLU()
  (L_12_0): Linear(in_features=128, out_features=512, bias=True)
  (L_12_2): Dropout(p=0.0, inplace=False)
  (Tanh_12_0): Tanh()
  (classification): Linear(in_features=512, out_features=10, bias=True)
)
2022-11-24 21:39:37.694 | INFO     | trainer:run:101 - Sequential(
  (C_0_0): Conv2d(1, 74, kernel_size=(3, 3), stride=(1, 1), padding=(1, 1))
  (C_0_2): Dropout(p=0.0, inplace=False)
  (ReLU_0_0): ReLU()
  (C_1_0): Conv2d(74, 118, kernel_size=(3, 3), stride=(1, 1), padding=(1, 1))
  (C_1_2): Dropout(p=0.0, inplace=False)
  (ReLU_1_0): ReLU()
  (flatten): Flatten(start_dim=1, end_dim=-1)
  (L_2_0): Linear(in_features=92512, out_features=512, bias=False)
  (L_2_1): BatchNorm1d(512, eps=1e-05, momentum=0.1, affine=True, track_running_stats=True)
  (L_2_2): Dropout(p=0.0, inplace=False)
  (ReLU_2_0): ReLU()
  (classification): Linear(in_features=512, out_features=10, bias=True)
)
2022-11-24 21:39:38.196 | INFO     | trainer:run:101 - Sequential(
  (C_0_0): Conv2d(1, 74, kernel_size=(3, 3), stride=(1, 1), padding=(1, 1))
  (C_0_2): Dropout(p=0.0, inplace=False)
  (ReLU_0_0): ReLU()
  (C_1_0): Conv2d(74, 118, kernel_size=(3, 3), stride=(1, 1), padding=(1, 1))
  (C_1_2): Dropout(p=0.0, inplace=False)
  (ReLU_1_0): ReLU()
  (C_2_0): Conv2d(118, 253, kernel_size=(3, 3), stride=(1, 1), padding=(1, 1), bias=False)
  (C_2_1): BatchNorm2d(253, eps=1e-05, momentum=0.1, affine=True, track_running_stats=True)
  (C_2_2): Dropout(p=0.2, inplace=False)
  (Sigmoid_2_0): Sigmoid()
  (P_3_0): MaxPool2d(kernel_size=2, stride=1, padding=0, dilation=1, ceil_mode=False)
  (P_3_1): BatchNorm2d(253, eps=1e-05, momentum=0.1, affine=True, track_running_stats=True)
  (P_3_2): Dropout(p=0.4, inplace=False)
  (C_4_0): Conv2d(253, 247, kernel_size=(1, 1), stride=(1, 1), bias=False)
  (C_4_1): BatchNorm2d(247, eps=1e-05, momentum=0.1, affine=True, track_running_stats=True)
  (C_4_2): Dropout(p=0.2, inplace=False)
  (ReLU_4_0): ReLU()
  (P_5_0): AvgPool2d(kernel_size=2, stride=1, padding=0)
  (P_5_1): BatchNorm2d(247, eps=1e-05, momentum=0.1, affine=True, track_running_stats=True)
  (P_5_2): Dropout(p=0.0, inplace=False)
  (C_6_0): Conv2d(247, 123, kernel_size=(1, 1), stride=(1, 1), bias=False)
  (C_6_1): BatchNorm2d(123, eps=1e-05, momentum=0.1, affine=True, track_running_stats=True)
  (C_6_2): Dropout(p=0.0, inplace=False)
  (Tanh_6_0): Tanh()
  (C_7_0): Conv2d(123, 247, kernel_size=(1, 1), stride=(1, 1), bias=False)
  (C_7_1): BatchNorm2d(247, eps=1e-05, momentum=0.1, affine=True, track_running_stats=True)
  (C_7_2): Dropout(p=0.2, inplace=False)
  (ReLU_7_0): ReLU()
  (P_8_0): AvgPool2d(kernel_size=2, stride=1, padding=0)
  (P_8_1): BatchNorm2d(247, eps=1e-05, momentum=0.1, affine=True, track_running_stats=True)
  (P_8_2): Dropout(p=0.0, inplace=False)
  (flatten): Flatten(start_dim=1, end_dim=-1)
  (L_9_0): Linear(in_features=154375, out_features=512, bias=False)
  (L_9_1): BatchNorm1d(512, eps=1e-05, momentum=0.1, affine=True, track_running_stats=True)
  (L_9_2): Dropout(p=0.0, inplace=False)
  (ReLU_9_0): ReLU()
  (L_10_0): Linear(in_features=512, out_features=512, bias=True)
  (L_10_2): Dropout(p=0.2, inplace=False)
  (Tanh_10_0): Tanh()
  (L_11_0): Linear(in_features=512, out_features=128, bias=False)
  (L_11_1): BatchNorm1d(128, eps=1e-05, momentum=0.1, affine=True, track_running_stats=True)
  (L_11_2): Dropout(p=0.1, inplace=False)
  (ReLU_11_0): ReLU()
  (L_12_0): Linear(in_features=128, out_features=512, bias=True)
  (L_12_2): Dropout(p=0.0, inplace=False)
  (Tanh_12_0): Tanh()
  (classification): Linear(in_features=512, out_features=10, bias=True)
)
2022-11-24 21:39:38.485 | INFO     | trainer:run:101 - Sequential(
  (C_0_0): Conv2d(1, 14, kernel_size=(3, 3), stride=(1, 1), padding=(1, 1), bias=False)
  (C_0_1): BatchNorm2d(14, eps=1e-05, momentum=0.1, affine=True, track_running_stats=True)
  (C_0_2): Dropout(p=0.5, inplace=False)
  (Sigmoid_0_0): Sigmoid()
  (C_1_0): Conv2d(14, 74, kernel_size=(3, 3), stride=(1, 1), padding=(1, 1))
  (C_1_2): Dropout(p=0.0, inplace=False)
  (ReLU_1_0): ReLU()
  (C_2_0): Conv2d(74, 118, kernel_size=(3, 3), stride=(1, 1), padding=(1, 1))
  (C_2_2): Dropout(p=0.0, inplace=False)
  (ReLU_2_0): ReLU()
  (P_3_0): MaxPool2d(kernel_size=2, stride=1, padding=0, dilation=1, ceil_mode=False)
  (P_3_2): Dropout(p=0.0, inplace=False)
  (flatten): Flatten(start_dim=1, end_dim=-1)
  (L_4_0): Linear(in_features=86022, out_features=512, bias=False)
  (L_4_1): BatchNorm1d(512, eps=1e-05, momentum=0.1, affine=True, track_running_stats=True)
  (L_4_2): Dropout(p=0.0, inplace=False)
  (ReLU_4_0): ReLU()
  (classification): Linear(in_features=512, out_features=10, bias=True)
)
2022-11-24 21:39:38.946 | INFO     | trainer:run:101 - Sequential(
  (C_0_0): Conv2d(1, 45, kernel_size=(1, 1), stride=(1, 1))
  (C_0_2): Dropout(p=0.1, inplace=False)
  (Sigmoid_0_0): Sigmoid()
  (C_1_0): Conv2d(45, 74, kernel_size=(3, 3), stride=(1, 1), padding=(1, 1))
  (C_1_2): Dropout(p=0.0, inplace=False)
  (ReLU_1_0): ReLU()
  (C_2_0): Conv2d(74, 118, kernel_size=(3, 3), stride=(1, 1), padding=(1, 1))
  (C_2_2): Dropout(p=0.0, inplace=False)
  (ReLU_2_0): ReLU()
  (C_3_0): Conv2d(118, 253, kernel_size=(3, 3), stride=(1, 1), padding=(1, 1), bias=False)
  (C_3_1): BatchNorm2d(253, eps=1e-05, momentum=0.1, affine=True, track_running_stats=True)
  (C_3_2): Dropout(p=0.2, inplace=False)
  (Sigmoid_3_0): Sigmoid()
  (P_4_0): MaxPool2d(kernel_size=5, stride=1, padding=0, dilation=1, ceil_mode=False)
  (P_4_1): BatchNorm2d(253, eps=1e-05, momentum=0.1, affine=True, track_running_stats=True)
  (P_4_2): Dropout(p=0.0, inplace=False)
  (C_5_0): Conv2d(253, 247, kernel_size=(1, 1), stride=(1, 1), bias=False)
  (C_5_1): BatchNorm2d(247, eps=1e-05, momentum=0.1, affine=True, track_running_stats=True)
  (C_5_2): Dropout(p=0.2, inplace=False)
  (ReLU_5_0): ReLU()
  (flatten): Flatten(start_dim=1, end_dim=-1)
  (L_6_0): Linear(in_features=142272, out_features=512, bias=False)
  (L_6_1): BatchNorm1d(512, eps=1e-05, momentum=0.1, affine=True, track_running_stats=True)
  (L_6_2): Dropout(p=0.0, inplace=False)
  (ReLU_6_0): ReLU()
  (classification): Linear(in_features=512, out_features=10, bias=True)
)
2022-11-24 21:39:38.986 | INFO     | trainer:run:101 - Sequential(
  (C_0_0): Conv2d(1, 74, kernel_size=(3, 3), stride=(1, 1), padding=(1, 1))
  (C_0_2): Dropout(p=0.0, inplace=False)
  (ReLU_0_0): ReLU()
  (C_1_0): Conv2d(74, 118, kernel_size=(3, 3), stride=(1, 1), padding=(1, 1))
  (C_1_2): Dropout(p=0.0, inplace=False)
  (ReLU_1_0): ReLU()
  (P_2_0): MaxPool2d(kernel_size=5, stride=1, padding=0, dilation=1, ceil_mode=False)
  (P_2_1): BatchNorm2d(118, eps=1e-05, momentum=0.1, affine=True, track_running_stats=True)
  (P_2_2): Dropout(p=0.0, inplace=False)
  (C_3_0): Conv2d(118, 247, kernel_size=(1, 1), stride=(1, 1), bias=False)
  (C_3_1): BatchNorm2d(247, eps=1e-05, momentum=0.1, affine=True, track_running_stats=True)
  (C_3_2): Dropout(p=0.2, inplace=False)
  (ReLU_3_0): ReLU()
  (C_4_0): Conv2d(247, 123, kernel_size=(1, 1), stride=(1, 1), bias=False)
  (C_4_1): BatchNorm2d(123, eps=1e-05, momentum=0.1, affine=True, track_running_stats=True)
  (C_4_2): Dropout(p=0.0, inplace=False)
  (Tanh_4_0): Tanh()
  (C_5_0): Conv2d(123, 42, kernel_size=(3, 3), stride=(1, 1), padding=(1, 1), bias=False)
  (C_5_1): BatchNorm2d(42, eps=1e-05, momentum=0.1, affine=True, track_running_stats=True)
  (C_5_2): Dropout(p=0.2, inplace=False)
  (ReLU_5_0): ReLU()
  (P_6_0): MaxPool2d(kernel_size=3, stride=3, padding=0, dilation=1, ceil_mode=False)
  (P_6_2): Dropout(p=0.2, inplace=False)
  (C_7_0): Conv2d(42, 123, kernel_size=(1, 1), stride=(1, 1), bias=False)
  (C_7_1): BatchNorm2d(123, eps=1e-05, momentum=0.1, affine=True, track_running_stats=True)
  (C_7_2): Dropout(p=0.0, inplace=False)
  (Tanh_7_0): Tanh()
  (flatten): Flatten(start_dim=1, end_dim=-1)
  (L_8_0): Linear(in_features=7872, out_features=512, bias=False)
  (L_8_1): BatchNorm1d(512, eps=1e-05, momentum=0.1, affine=True, track_running_stats=True)
  (L_8_2): Dropout(p=0.0, inplace=False)
  (ReLU_8_0): ReLU()
  (classification): Linear(in_features=512, out_features=10, bias=True)
)
2022-11-24 21:39:39.057 | INFO     | trainer:run:101 - Sequential(
  (C_0_0): Conv2d(1, 74, kernel_size=(3, 3), stride=(1, 1), padding=(1, 1))
  (C_0_2): Dropout(p=0.0, inplace=False)
  (ReLU_0_0): ReLU()
  (C_1_0): Conv2d(74, 30, kernel_size=(1, 1), stride=(1, 1), bias=False)
  (C_1_1): BatchNorm2d(30, eps=1e-05, momentum=0.1, affine=True, track_running_stats=True)
  (C_1_2): Dropout(p=0.1, inplace=False)
  (Tanh_1_0): Tanh()
  (P_2_0): MaxPool2d(kernel_size=2, stride=1, padding=0, dilation=1, ceil_mode=False)
  (P_2_2): Dropout(p=0.0, inplace=False)
  (flatten): Flatten(start_dim=1, end_dim=-1)
  (L_3_0): Linear(in_features=21870, out_features=512, bias=False)
  (L_3_1): BatchNorm1d(512, eps=1e-05, momentum=0.1, affine=True, track_running_stats=True)
  (L_3_2): Dropout(p=0.0, inplace=False)
  (ReLU_3_0): ReLU()
  (classification): Linear(in_features=512, out_features=10, bias=True)
)
2022-11-24 21:39:39.555 | INFO     | trainer:run:101 - Sequential(
  (C_0_0): Conv2d(1, 176, kernel_size=(5, 5), stride=(1, 1), padding=(2, 2), bias=False)
  (C_0_1): BatchNorm2d(176, eps=1e-05, momentum=0.1, affine=True, track_running_stats=True)
  (C_0_2): Dropout(p=0.4, inplace=False)
  (Sigmoid_0_0): Sigmoid()
  (C_1_0): Conv2d(176, 74, kernel_size=(3, 3), stride=(1, 1), padding=(1, 1))
  (C_1_2): Dropout(p=0.0, inplace=False)
  (ReLU_1_0): ReLU()
  (C_2_0): Conv2d(74, 118, kernel_size=(3, 3), stride=(1, 1), padding=(1, 1))
  (C_2_2): Dropout(p=0.0, inplace=False)
  (ReLU_2_0): ReLU()
  (C_3_0): Conv2d(118, 118, kernel_size=(3, 3), stride=(1, 1), padding=(1, 1))
  (C_3_2): Dropout(p=0.0, inplace=False)
  (ReLU_3_0): ReLU()
  (P_4_0): MaxPool2d(kernel_size=2, stride=1, padding=0, dilation=1, ceil_mode=False)
  (P_4_2): Dropout(p=0.0, inplace=False)
  (C_5_0): Conv2d(118, 253, kernel_size=(3, 3), stride=(1, 1), padding=(1, 1), bias=False)
  (C_5_1): BatchNorm2d(253, eps=1e-05, momentum=0.1, affine=True, track_running_stats=True)
  (C_5_2): Dropout(p=0.2, inplace=False)
  (Sigmoid_5_0): Sigmoid()
  (P_6_0): AvgPool2d(kernel_size=2, stride=1, padding=0)
  (P_6_1): BatchNorm2d(253, eps=1e-05, momentum=0.1, affine=True, track_running_stats=True)
  (P_6_2): Dropout(p=0.0, inplace=False)
  (C_7_0): Conv2d(253, 247, kernel_size=(1, 1), stride=(1, 1), bias=False)
  (C_7_1): BatchNorm2d(247, eps=1e-05, momentum=0.1, affine=True, track_running_stats=True)
  (C_7_2): Dropout(p=0.2, inplace=False)
  (ReLU_7_0): ReLU()
  (C_8_0): Conv2d(247, 247, kernel_size=(1, 1), stride=(1, 1), bias=False)
  (C_8_1): BatchNorm2d(247, eps=1e-05, momentum=0.1, affine=True, track_running_stats=True)
  (C_8_2): Dropout(p=0.2, inplace=False)
  (ReLU_8_0): ReLU()
  (P_9_0): AvgPool2d(kernel_size=2, stride=1, padding=0)
  (P_9_1): BatchNorm2d(247, eps=1e-05, momentum=0.1, affine=True, track_running_stats=True)
  (P_9_2): Dropout(p=0.0, inplace=False)
  (flatten): Flatten(start_dim=1, end_dim=-1)
  (L_10_0): Linear(in_features=154375, out_features=512, bias=False)
  (L_10_1): BatchNorm1d(512, eps=1e-05, momentum=0.1, affine=True, track_running_stats=True)
  (L_10_2): Dropout(p=0.0, inplace=False)
  (ReLU_10_0): ReLU()
  (L_11_0): Linear(in_features=512, out_features=512, bias=True)
  (L_11_2): Dropout(p=0.2, inplace=False)
  (Tanh_11_0): Tanh()
  (L_12_0): Linear(in_features=512, out_features=128, bias=False)
  (L_12_1): BatchNorm1d(128, eps=1e-05, momentum=0.1, affine=True, track_running_stats=True)
  (L_12_2): Dropout(p=0.1, inplace=False)
  (ReLU_12_0): ReLU()
  (L_13_0): Linear(in_features=128, out_features=512, bias=True)
  (L_13_2): Dropout(p=0.0, inplace=False)
  (Tanh_13_0): Tanh()
  (classification): Linear(in_features=512, out_features=10, bias=True)
)
2022-11-24 21:39:39.829 | INFO     | trainer:run:101 - Sequential(
  (C_0_0): Conv2d(1, 74, kernel_size=(3, 3), stride=(1, 1), padding=(1, 1))
  (C_0_2): Dropout(p=0.0, inplace=False)
  (ReLU_0_0): ReLU()
  (C_1_0): Conv2d(74, 118, kernel_size=(3, 3), stride=(1, 1), padding=(1, 1))
  (C_1_2): Dropout(p=0.0, inplace=False)
  (ReLU_1_0): ReLU()
  (P_2_0): MaxPool2d(kernel_size=2, stride=1, padding=0, dilation=1, ceil_mode=False)
  (P_2_2): Dropout(p=0.0, inplace=False)
  (C_3_0): Conv2d(118, 247, kernel_size=(1, 1), stride=(1, 1), bias=False)
  (C_3_1): BatchNorm2d(247, eps=1e-05, momentum=0.1, affine=True, track_running_stats=True)
  (C_3_2): Dropout(p=0.2, inplace=False)
  (ReLU_3_0): ReLU()
  (C_4_0): Conv2d(247, 150, kernel_size=(5, 5), stride=(1, 1), padding=(2, 2), bias=False)
  (C_4_1): BatchNorm2d(150, eps=1e-05, momentum=0.1, affine=True, track_running_stats=True)
  (C_4_2): Dropout(p=0.0, inplace=False)
  (ReLU_4_0): ReLU()
  (P_5_0): AvgPool2d(kernel_size=2, stride=1, padding=0)
  (P_5_1): BatchNorm2d(150, eps=1e-05, momentum=0.1, affine=True, track_running_stats=True)
  (P_5_2): Dropout(p=0.0, inplace=False)
  (C_6_0): Conv2d(150, 248, kernel_size=(3, 3), stride=(1, 1), padding=(1, 1), bias=False)
  (C_6_1): BatchNorm2d(248, eps=1e-05, momentum=0.1, affine=True, track_running_stats=True)
  (C_6_2): Dropout(p=0.5, inplace=False)
  (ReLU_6_0): ReLU()
  (P_7_0): MaxPool2d(kernel_size=5, stride=1, padding=0, dilation=1, ceil_mode=False)
  (P_7_2): Dropout(p=0.2, inplace=False)
  (C_8_0): Conv2d(248, 175, kernel_size=(3, 3), stride=(1, 1), padding=(1, 1))
  (C_8_2): Dropout(p=0.0, inplace=False)
  (ReLU_8_0): ReLU()
  (P_9_0): AvgPool2d(kernel_size=2, stride=1, padding=0)
  (P_9_1): BatchNorm2d(175, eps=1e-05, momentum=0.1, affine=True, track_running_stats=True)
  (P_9_2): Dropout(p=0.3, inplace=False)
  (flatten): Flatten(start_dim=1, end_dim=-1)
  (L_10_0): Linear(in_features=77175, out_features=512, bias=False)
  (L_10_1): BatchNorm1d(512, eps=1e-05, momentum=0.1, affine=True, track_running_stats=True)
  (L_10_2): Dropout(p=0.0, inplace=False)
  (ReLU_10_0): ReLU()
  (L_11_0): Linear(in_features=512, out_features=512, bias=True)
  (L_11_2): Dropout(p=0.2, inplace=False)
  (Tanh_11_0): Tanh()
  (L_12_0): Linear(in_features=512, out_features=128, bias=False)
  (L_12_1): BatchNorm1d(128, eps=1e-05, momentum=0.1, affine=True, track_running_stats=True)
  (L_12_2): Dropout(p=0.1, inplace=False)
  (ReLU_12_0): ReLU()
  (L_13_0): Linear(in_features=128, out_features=256, bias=False)
  (L_13_1): BatchNorm1d(256, eps=1e-05, momentum=0.1, affine=True, track_running_stats=True)
  (L_13_2): Dropout(p=0.2, inplace=False)
  (ReLU_13_0): ReLU()
  (L_14_0): Linear(in_features=256, out_features=128, bias=False)
  (L_14_1): BatchNorm1d(128, eps=1e-05, momentum=0.1, affine=True, track_running_stats=True)
  (L_14_2): Dropout(p=0.1, inplace=False)
  (Tanh_14_0): Tanh()
  (L_15_0): Linear(in_features=128, out_features=512, bias=True)
  (L_15_2): Dropout(p=0.0, inplace=False)
  (Tanh_15_0): Tanh()
  (classification): Linear(in_features=512, out_features=10, bias=True)
)
2022-11-24 21:39:40.010 | INFO     | trainer:run:101 - Sequential(
  (C_0_0): Conv2d(1, 173, kernel_size=(5, 5), stride=(1, 1), padding=(2, 2), bias=False)
  (C_0_1): BatchNorm2d(173, eps=1e-05, momentum=0.1, affine=True, track_running_stats=True)
  (C_0_2): Dropout(p=0.3, inplace=False)
  (ReLU_0_0): ReLU()
  (C_1_0): Conv2d(173, 160, kernel_size=(1, 1), stride=(1, 1))
  (C_1_2): Dropout(p=0.4, inplace=False)
  (ReLU_1_0): ReLU()
  (P_2_0): AvgPool2d(kernel_size=3, stride=1, padding=0)
  (P_2_1): BatchNorm2d(160, eps=1e-05, momentum=0.1, affine=True, track_running_stats=True)
  (P_2_2): Dropout(p=0.2, inplace=False)
  (flatten): Flatten(start_dim=1, end_dim=-1)
  (L_3_0): Linear(in_features=108160, out_features=256, bias=False)
  (L_3_1): BatchNorm1d(256, eps=1e-05, momentum=0.1, affine=True, track_running_stats=True)
  (L_3_2): Dropout(p=0.0, inplace=False)
  (ReLU_3_0): ReLU()
  (classification): Linear(in_features=256, out_features=10, bias=True)
)
2022-11-24 21:39:40.243 | INFO     | trainer:run:101 - Sequential(
  (C_0_0): Conv2d(1, 230, kernel_size=(3, 3), stride=(1, 1), padding=(1, 1), bias=False)
  (C_0_1): BatchNorm2d(230, eps=1e-05, momentum=0.1, affine=True, track_running_stats=True)
  (C_0_2): Dropout(p=0.4, inplace=False)
  (Sigmoid_0_0): Sigmoid()
  (C_1_0): Conv2d(230, 118, kernel_size=(3, 3), stride=(1, 1), padding=(1, 1))
  (C_1_2): Dropout(p=0.0, inplace=False)
  (ReLU_1_0): ReLU()
  (C_2_0): Conv2d(118, 247, kernel_size=(1, 1), stride=(1, 1), bias=False)
  (C_2_1): BatchNorm2d(247, eps=1e-05, momentum=0.1, affine=True, track_running_stats=True)
  (C_2_2): Dropout(p=0.2, inplace=False)
  (ReLU_2_0): ReLU()
  (P_3_0): MaxPool2d(kernel_size=5, stride=1, padding=0, dilation=1, ceil_mode=False)
  (P_3_1): BatchNorm2d(247, eps=1e-05, momentum=0.1, affine=True, track_running_stats=True)
  (P_3_2): Dropout(p=0.0, inplace=False)
  (C_4_0): Conv2d(247, 123, kernel_size=(1, 1), stride=(1, 1), bias=False)
  (C_4_1): BatchNorm2d(123, eps=1e-05, momentum=0.1, affine=True, track_running_stats=True)
  (C_4_2): Dropout(p=0.0, inplace=False)
  (Tanh_4_0): Tanh()
  (C_5_0): Conv2d(123, 123, kernel_size=(1, 1), stride=(1, 1), bias=False)
  (C_5_1): BatchNorm2d(123, eps=1e-05, momentum=0.1, affine=True, track_running_stats=True)
  (C_5_2): Dropout(p=0.0, inplace=False)
  (Tanh_5_0): Tanh()
  (flatten): Flatten(start_dim=1, end_dim=-1)
  (L_6_0): Linear(in_features=70848, out_features=512, bias=False)
  (L_6_1): BatchNorm1d(512, eps=1e-05, momentum=0.1, affine=True, track_running_stats=True)
  (L_6_2): Dropout(p=0.0, inplace=False)
  (ReLU_6_0): ReLU()
  (classification): Linear(in_features=512, out_features=10, bias=True)
)
2022-11-24 21:39:40.477 | INFO     | trainer:run:101 - Sequential(
  (C_0_0): Conv2d(1, 74, kernel_size=(3, 3), stride=(1, 1), padding=(1, 1))
  (C_0_2): Dropout(p=0.0, inplace=False)
  (ReLU_0_0): ReLU()
  (C_1_0): Conv2d(74, 247, kernel_size=(1, 1), stride=(1, 1), bias=False)
  (C_1_1): BatchNorm2d(247, eps=1e-05, momentum=0.1, affine=True, track_running_stats=True)
  (C_1_2): Dropout(p=0.2, inplace=False)
  (ReLU_1_0): ReLU()
  (P_2_0): MaxPool2d(kernel_size=5, stride=1, padding=0, dilation=1, ceil_mode=False)
  (P_2_1): BatchNorm2d(247, eps=1e-05, momentum=0.1, affine=True, track_running_stats=True)
  (P_2_2): Dropout(p=0.0, inplace=False)
  (C_3_0): Conv2d(247, 123, kernel_size=(1, 1), stride=(1, 1), bias=False)
  (C_3_1): BatchNorm2d(123, eps=1e-05, momentum=0.1, affine=True, track_running_stats=True)
  (C_3_2): Dropout(p=0.0, inplace=False)
  (Tanh_3_0): Tanh()
  (C_4_0): Conv2d(123, 123, kernel_size=(1, 1), stride=(1, 1), bias=False)
  (C_4_1): BatchNorm2d(123, eps=1e-05, momentum=0.1, affine=True, track_running_stats=True)
  (C_4_2): Dropout(p=0.0, inplace=False)
  (Tanh_4_0): Tanh()
  (flatten): Flatten(start_dim=1, end_dim=-1)
  (L_5_0): Linear(in_features=70848, out_features=512, bias=False)
  (L_5_1): BatchNorm1d(512, eps=1e-05, momentum=0.1, affine=True, track_running_stats=True)
  (L_5_2): Dropout(p=0.0, inplace=False)
  (ReLU_5_0): ReLU()
  (classification): Linear(in_features=512, out_features=10, bias=True)
)
2022-11-24 21:39:40.506 | INFO     | trainer:run:101 - Sequential(
  (C_0_0): Conv2d(1, 74, kernel_size=(3, 3), stride=(1, 1), padding=(1, 1))
  (C_0_2): Dropout(p=0.0, inplace=False)
  (ReLU_0_0): ReLU()
  (C_1_0): Conv2d(74, 118, kernel_size=(3, 3), stride=(1, 1), padding=(1, 1))
  (C_1_2): Dropout(p=0.0, inplace=False)
  (ReLU_1_0): ReLU()
  (P_2_0): MaxPool2d(kernel_size=3, stride=3, padding=0, dilation=1, ceil_mode=False)
  (P_2_2): Dropout(p=0.1, inplace=False)
  (Tanh_2_0): Tanh()
  (P_3_0): MaxPool2d(kernel_size=2, stride=1, padding=0, dilation=1, ceil_mode=False)
  (P_3_2): Dropout(p=0.0, inplace=False)
  (flatten): Flatten(start_dim=1, end_dim=-1)
  (L_4_0): Linear(in_features=7552, out_features=512, bias=False)
  (L_4_1): BatchNorm1d(512, eps=1e-05, momentum=0.1, affine=True, track_running_stats=True)
  (L_4_2): Dropout(p=0.0, inplace=False)
  (ReLU_4_0): ReLU()
  (classification): Linear(in_features=512, out_features=10, bias=True)
)
2022-11-24 21:39:40.532 | INFO     | trainer:run:101 - Sequential(
  (C_0_0): Conv2d(1, 74, kernel_size=(3, 3), stride=(1, 1), padding=(1, 1))
  (C_0_2): Dropout(p=0.0, inplace=False)
  (ReLU_0_0): ReLU()
  (C_1_0): Conv2d(74, 118, kernel_size=(3, 3), stride=(1, 1), padding=(1, 1))
  (C_1_2): Dropout(p=0.0, inplace=False)
  (ReLU_1_0): ReLU()
  (C_2_0): Conv2d(118, 123, kernel_size=(1, 1), stride=(1, 1))
  (C_2_2): Dropout(p=0.1, inplace=False)
  (ReLU_2_0): ReLU()
  (P_3_0): MaxPool2d(kernel_size=5, stride=1, padding=0, dilation=1, ceil_mode=False)
  (P_3_1): BatchNorm2d(123, eps=1e-05, momentum=0.1, affine=True, track_running_stats=True)
  (P_3_2): Dropout(p=0.0, inplace=False)
  (C_4_0): Conv2d(123, 247, kernel_size=(1, 1), stride=(1, 1), bias=False)
  (C_4_1): BatchNorm2d(247, eps=1e-05, momentum=0.1, affine=True, track_running_stats=True)
  (C_4_2): Dropout(p=0.2, inplace=False)
  (ReLU_4_0): ReLU()
  (C_5_0): Conv2d(247, 13, kernel_size=(5, 5), stride=(1, 1), padding=(2, 2), bias=False)
  (C_5_1): BatchNorm2d(13, eps=1e-05, momentum=0.1, affine=True, track_running_stats=True)
  (C_5_2): Dropout(p=0.2, inplace=False)
  (ReLU_5_0): ReLU()
  (P_6_0): MaxPool2d(kernel_size=3, stride=3, padding=0, dilation=1, ceil_mode=False)
  (P_6_1): BatchNorm2d(13, eps=1e-05, momentum=0.1, affine=True, track_running_stats=True)
  (P_6_2): Dropout(p=0.2, inplace=False)
  (C_7_0): Conv2d(13, 123, kernel_size=(1, 1), stride=(1, 1), bias=False)
  (C_7_1): BatchNorm2d(123, eps=1e-05, momentum=0.1, affine=True, track_running_stats=True)
  (C_7_2): Dropout(p=0.0, inplace=False)
  (Tanh_7_0): Tanh()
  (flatten): Flatten(start_dim=1, end_dim=-1)
  (L_8_0): Linear(in_features=7872, out_features=512, bias=False)
  (L_8_1): BatchNorm1d(512, eps=1e-05, momentum=0.1, affine=True, track_running_stats=True)
  (L_8_2): Dropout(p=0.0, inplace=False)
  (ReLU_8_0): ReLU()
  (classification): Linear(in_features=512, out_features=10, bias=True)
)
