…
ion.Activation object at 0x7f0ba0584a90>], [<layer.Convolution object at 0x7f0ba05849d0>, <activation.Activation object at 0x7f0ba0584b10>], [<layer.Pooling object at 0x7f0ba0584b50>, <activation.Activation object at 0x7f0ba0584bd0>], [<layer.Convolution object at 0x7f0ba0584c10>, <activation.Activation object at 0x7f0ba0584cd0>], [<layer.Linear object at 0x7f0ba0584d50>, <activation.Activation object at 0x7f0ba0584dd0>]]]
2022-12-09 09:28:41.918 | INFO     | trainer:run:62 - GA Search Time: 1 day, 9:24:26.796137
2022-12-09 09:28:42.075 | INFO     | trainer:run:65 - model: Sequential(
  (C_0_0): Conv2d(1, 74, kernel_size=(3, 3), stride=(1, 1), padding=(1, 1))
  (C_0_2): Dropout(p=0.0, inplace=False)
  (ReLU_0_0): Tanh()
  (C_1_0): Conv2d(74, 37, kernel_size=(1, 1), stride=(1, 1), bias=False)
  (C_1_1): BatchNorm2d(37, eps=1e-05, momentum=0.1, affine=True, track_running_stats=True)
  (C_1_2): Dropout(p=0.0, inplace=False)
  (Tanh_1_0): Tanh()
  (C_2_0): Conv2d(37, 123, kernel_size=(1, 1), stride=(1, 1), bias=False)
  (C_2_1): BatchNorm2d(123, eps=1e-05, momentum=0.1, affine=True, track_running_stats=True)
  (C_2_2): Dropout(p=0.0, inplace=False)
  (Tanh_2_0): Tanh()
  (P_3_0): MaxPool2d(kernel_size=2, stride=1, padding=0, dilation=1, ceil_mode=False)
  (P_3_2): Dropout(p=0.0, inplace=False)
  (C_4_0): Conv2d(123, 123, kernel_size=(1, 1), stride=(1, 1), bias=False)
  (C_4_1): BatchNorm2d(123, eps=1e-05, momentum=0.1, affine=True, track_running_stats=True)
  (C_4_2): Dropout(p=0.0, inplace=False)
  (Tanh_4_0): Tanh()
  (flatten): Flatten(start_dim=1, end_dim=-1)
  (L_5_0): Linear(in_features=89667, out_features=256, bias=False)
  (L_5_1): BatchNorm1d(256, eps=1e-05, momentum=0.1, affine=True, track_running_stats=True)
  (L_5_2): Dropout(p=0.2, inplace=False)
  (ReLU_5_0): ReLU()
  (classification): Linear(in_features=256, out_features=10, bias=True)
)
2022-12-09 09:28:55.536 | INFO     | trainer:run:94 - Fully Train Started
2022-12-09 09:28:55.556 | INFO     | trainer:train:256 - Epoch: 1
2022-12-09 09:29:14.357 | INFO     | trainer:train:282 - Train Loss: 0.445 | Train Acc: 85.583 (25675/30000)
2022-12-09 09:29:16.153 | INFO     | trainer:eval:336 - Eval Loss: 0.308 | Eval Acc: 89.180 (8918/10000)
…
